models/snake10k.pth (torch, 712256 bytes, 10 tensors)

conv1.weight f4 [32, 1, 3, 3]
0	0x3b2c86d7	0.0026325488
1	0x3d239d51	0.03994495
2	0xbf179327	-0.5920891
3	0x3d46051b	0.048344713
4	0x3f06dc6b	0.5268008
5	0x3f04a971	0.5182105
6	0x3cc823db	0.02443116
7	0xbf0921ba	-0.5356709
8	0xbc22d5fd	-0.009938714
9	0xbe971c66	-0.29513854
10	0x3b354753	0.002766092
11	0x3ee79b60	0.4523573
12	0xbca22a98	-0.0197957
13	0xbe9fc762	-0.31206805
14	0x3d621cfa	0.055203415
15	0xbeaded3b	-0.33970055
16	0xbeb2d824	-0.34930527
17	0x3efc9171	0.49329713
18	0x3ed8ff76	0.423824
19	0x3a8f5a63	0.0010936972
20	0x3e3c6e29	0.18401398
21	0xbd4afbd8	-0.049556583
22	0xbecef1a4	-0.40418732
23	0xbd5028a4	-0.050820008
24	0xbee24142	-0.44190413
25	0x3ebadbad	0.36495724
26	0x3e6e04da	0.23244038
27	0xbe8e7c08	-0.27829003
28	0x3e64cd2e	0.22343895
29	0xbdf6dcfc	-0.12053868
30	0xbee861c2	-0.45387083
31	0xbe9a0133	-0.3007904
32	0x3cc5e188	0.024155393
33	0x3f0f4ec9	0.5597959
34	0x3d8b65ba	0.06806512
35	0xbb9fe596	-0.0048796637
36	0xbc2be869	-0.010492423
37	0x3adf6132	0.0017042516
38	0xbef9ce8f	-0.48790404
39	0x3c6b9f22	0.014381202
40	0x3ba00240	0.0048830807
41	0xbc554fa2	-0.013019474
42	0x3c3bc6fb	0.011461015
43	0x3bbe4847	0.005806956
44	0xb92193dc	-0.00015409238
45	0xbf6c2a79	-0.9225231
46	0xb8f923c6	-0.000118799086
47	0xbc97e818	-0.018543288
48	0x3bdefe93	0.00680525
49	0xbbe8fb07	-0.007110003
50	0xbb61e5fa	-0.0034469352
51	0xbabc6f2f	-0.0014376397
52	0xbc2bd845	-0.010488574
53	0xbf6d88ad	-0.92786676
54	0xbcd8ba61	-0.02645606
55	0xbf345ea7	-0.7045693
56	0x3f357458	0.7088065
57	0xbc9919f8	-0.01868914
58	0x3c237c6c	0.009978395
59	0x3ecd1462	0.40054613
60	0x3c7e3ac4	0.0155169405
61	0xbd1181ed	-0.035524298
62	0xbafd8fdc	-0.0019345242
63	0x3d78bd3a	0.060727336
64	0x3e6cd3f7	0.23127733
65	0x3f34f2cc	0.7068298
66	0xbd2f7102	-0.042832382
67	0xbdcb1e4a	-0.099178866
68	0xbea075b9	-0.31339815
69	0x3e9b7a13	0.30366573
70	0xbe607d6e	-0.21922848
71	0xbe3f69cf	-0.18692707
72	0x3d0d07eb	0.03443138
73	0xbe968a6a	-0.29402477
74	0x3ef56fae	0.47936767
75	0xbeb07d01	-0.3447037
76	0xbea20d76	-0.31650895
77	0x3ec64a46	0.3872854
78	0x3ee5f407	0.4491274
79	0x3ed19537	0.40934154
80	0x3ee33cbc	0.44382274
81	0x3f00630d	0.5015114
82	0xbe960edb	-0.2930821
83	0xbe8dc19d	-0.27686778
84	0xbed0674a	-0.40703803
85	0xbde1be8a	-0.110226706
86	0xbd4ec57a	-0.050481297
87	0x3d86cc5e	0.06581949
88	0xbe3d72b3	-0.18500786
89	0xbe32520a	-0.17414108
90	0xbda6871d	-0.081312396
91	0xbe844417	-0.25833198
92	0x3d826acb	0.063680254
93	0xbe2ddee1	-0.16979553
94	0xbb751157	-0.0037394369
95	0xbeb78653	-0.3584467
96	0xbe939dad	-0.28831235
97	0x3ec011e4	0.3751365
98	0xbeade430	-0.33963156
99	0x3f26941f	0.65069765
100	0xbf21cdc1	-0.6320458
101	0xbc9f5884	-0.019451387
102	0x3f23f1e5	0.64040977
103	0xbcd79303	-0.026315218
104	0xbc30e1c2	-0.010796012
105	0x3f22cb52	0.6359149
106	0x3cffabfa	0.031209935
107	0xbc067b69	-0.008208134
108	0x3e9d8725	0.3076717
109	0x3e9846f0	0.2974162
110	0x3f0c0509	0.54695183
111	0x3e7f4046	0.24926862
112	0x3e1affd8	0.15136659
113	0x3e682688	0.22670949
114	0x3eab4c10	0.3345647
115	0x3e91bc12	0.284638
116	0x3f0c9856	0.54919946
117	0xbea75c1a	-0.32687455
118	0xbc31d846	-0.010854786
119	0x3e937630	0.28801107
120	0x3ccc3a13	0.024930036
121	0x3e358a54	0.17728549
122	0x3eacf33a	0.33779317
123	0x3ea68899	0.3252609
124	0x3ed00659	0.40629843
125	0xbeb4c335	-0.3530518
126	0x383b557d	4.466389e-05
127	0x3b3bac6b	0.0028636705
128	0x3c0cc91c	0.00859287
129	0x3bb4c80e	0.0055170124
130	0x3c5e0e1b	0.013553168
131	0x3b9f4134	0.0048600677
132	0x3c96128d	0.018319393
133	0x3cb3394b	0.021877905
134	0xbf091834	-0.53552556
135	0x3ed2c183	0.41163263
136	0x3ed117b0	0.40838385
137	0x3ecb0b05	0.39656845
138	0xbd17b985	-0.03704216
139	0x3da106e3	0.07862642
140	0x3ebe0eb5	0.37120596
141	0xbde9330f	-0.11386692
142	0xbd29fcad	-0.041500736
143	0x3eac18af	0.33612582
144	0xbea16af1	-0.31526902
145	0x3aebf751	0.0018002783
146	0xbebcd3e6	-0.36880416
147	0x3ef5ca51	0.48005918
148	0xbea3e274	-0.32008708
149	0xbbc3260f	-0.0059554647
150	0x3edfc50b	0.4370502
151	0x3eea2bcf	0.45736548
152	0xbeab6af7	-0.33480045
153	0x3f16ebb9	0.58953434
154	0x3da8d258	0.08243245
155	0x3df38fc1	0.11892653
156	0x3ea107a8	0.31451154
157	0x3bb3a286	0.005482021
158	0xbd9e75c1	-0.077373035
159	0x3d77f41c	0.060535535
160	0xbd81c410	-0.06336224
161	0x3a93384b	0.0011231987
162	0xbb173600	-0.0023072958
163	0x3b8d1f41	0.0043067043
164	0x3bc32479	0.0059552756
165	0xbc21b768	-0.009870388
166	0x3c0a8791	0.008455173
167	0x3c400d67	0.011721945
168	0xbedfdc15	-0.43722597
169	0x39bad79d	0.0003563733
170	0x3be507fa	0.0069894763
171	0xbe71b655	-0.2360471
172	0x3bf47aee	0.0074609434
173	0xbf046256	-0.5171255
174	0xbd6cbca4	-0.05779709
175	0xbe89b698	-0.2689712
176	0x3a3db8e3	0.0007237328
177	0xbe13e0bb	-0.14441197
178	0x3d31e100	0.043427467
179	0x3f107c19	0.5643936
180	0x3b9090df	0.004411801
181	0x3e464070	0.19360518
182	0x3dc7e72e	0.09760891
183	0xbd5a8de9	-0.053357992
184	0x3ebc8393	0.36819133
185	0x3ee01120	0.43763065
186	0xbf02b313	-0.51054496
187	0x3efa281c	0.48858726
188	0xbf04e567	-0.5191254
189	0xbd11abfc	-0.035564408
190	0xbe84b71f	-0.2592096
191	0xbc5a87ff	-0.013338088
192	0xbd2b86fb	-0.041876774
193	0x3e9b7668	0.30363774
194	0xbee28913	-0.44245204
195	0x3d6da16b	0.05801527
196	0xbf02536d	-0.5090855
197	0x3ecf94db	0.40543255
198	0xbbf84e2e	-0.007577679
199	0xbcbf8eb2	-0.023383472
200	0x3c199289	0.009373316
201	0xbf2363b2	-0.63824
202	0x3eff2348	0.49831605
203	0x3eb3d5a2	0.35123926
204	0x3f23e20a	0.64016783
205	0x3eb89563	0.36051473
206	0xbeb0c6ac	-0.34526575
207	0xbe47ae33	-0.19500045
208	0x3e5e564a	0.21712604
209	0x3ee9929b	0.45619664
210	0xbc5b6735	-0.013391306
211	0x3e265698	0.1624397
212	0x3dacdab5	0.084401526
213	0xbeca22a1	-0.39479545
214	0x3e4a15fb	0.19734947
215	0xbeccba1b	-0.39985737
216	0xbda81a02	-0.082080856
217	0xbee327ee	-0.443664
218	0x3f0796b1	0.5296431
219	0xbd7e4c29	-0.06208435
220	0x3e8ade9e	0.27122968
221	0x3ea63548	0.32462525
222	0xbed2ee39	-0.41197374
223	0x3eae999a	0.34101564
224	0x3e775a33	0.24155502
225	0xbcbb991a	-0.022900153
226	0x3eca83fe	0.39553827
227	0xbec1b958	-0.3783672
228	0xbd366cc0	-0.044537306
229	0x3ecd820d	0.40138283
230	0xbeac9b23	-0.3371211
231	0xbd207d9f	-0.0391823
232	0xbda0d1ee	-0.07852541
233	0x3c11a112	0.0088885
234	0x3f133337	0.5750002
235	0x3d0a2909	0.03373054
236	0x3decb96d	0.11558805
237	0xbf31190e	-0.69178855
238	0x3ecba3f8	0.39773536
239	0x3e1dc205	0.15406044
240	0xbdf964f6	-0.1217746
241	0xbc79c017	-0.015243552
242	0x3d20f0b0	0.039292037
243	0x3d903b52	0.070425645
244	0x3c48abbf	0.012247979
245	0x3e9f94c5	0.3116819
246	0x3ed9de50	0.42552423
247	0x3d2d010c	0.042237327
248	0xbf018ee5	-0.50608665
249	0xbf0453db	-0.51690453
250	0xbc9409e7	-0.018071128
251	0x3ebe7c3b	0.37204155
252	0xbefdfae0	-0.49605465
253	0xbb85e3cf	-0.004085995
254	0x3baa2424	0.0051922966
255	0x3b9c629d	0.004772498

conv1.bias f4 [32]
0	0xbe9e40b0	-0.30908728
1	0xbf019366	-0.5061554
2	0xbe9e0c55	-0.30868784
3	0xbf0a4947	-0.5401806
4	0xbcdced95	-0.026968757
5	0xbef199f0	-0.47187757
6	0xbec394a0	-0.3819933
7	0xbe9750ce	-0.29553837
8	0xbeeed10e	-0.4664387
9	0xbedab47f	-0.42715833
10	0xbf069244	-0.52566934
11	0xbeb9edfc	-0.3631438
12	0x3e121e1d	0.142693
13	0xbeb8c3df	-0.36086938
14	0xbc253427	-0.010083235
15	0xbe55cb4c	-0.20878333
16	0xbf0aef93	-0.5427181
17	0xbe0d2747	-0.13784514
18	0xbc5d52c2	-0.0135085005
19	0xbf0d926c	-0.5530155
20	0xbea5a098	-0.32349086
21	0xbea18976	-0.31550187
22	0xbeb91cbc	-0.36154735
23	0xbed3d957	-0.41376755
24	0xbf15c0f1	-0.5849753
25	0xbf147ae2	-0.58000004
26	0xbf079c6c	-0.52973056
27	0xbea5f4d5	-0.32413355
28	0xbce57230	-0.02800855
29	0xbeda88b6	-0.42682427
30	0xbe997a93	-0.2997633
31	0xbddd2aaa	-0.10799153

conv2.weight f4 [128, 32, 3, 3]
0	0x3d6f59f4	0.058435395
1	0x3d5a6290	0.053316653
2	0x3deee8b0	0.11665475
3	0x3cf7ec3d	0.030264014
4	0x3dadda1e	0.08488868
5	0xbec5a5ab	-0.38602957
6	0x3d3aa053	0.045563053
7	0xbe71bc09	-0.23606886
8	0xbed366e0	-0.41289425
9	0x3d038c05	0.032115955
10	0xbde47ea9	-0.11156971
11	0xbe7393aa	-0.23786798
12	0x3e15b720	0.14620638
13	0x3b308893	0.0026936873
14	0x3dde3cf2	0.10851468
15	0x3ef06e1f	0.46959016
16	0xbe0b94d1	-0.13630988
17	0xbdd5774f	-0.10423147
18	0xbda2c0f2	-0.07946958
19	0x3e312796	0.17300257
20	0x3ad48642	0.0016214328
21	0xbdb99155	-0.09060923
22	0x3d9ec38c	0.07752141
23	0x3bdc5d51	0.0067249914
24	0xbf24b420	-0.6433735
25	0xbd5cde6f	-0.053923067
26	0xbcf7dcfe	-0.030256744
27	0xbeebbbdf	-0.46041772
28	0x3e4a4dd9	0.19756259
29	0x3e6e5615	0.23275025
30	0xbbbcf2d9	-0.0057662544
31	0xbe8d05bc	-0.27543437
32	0xbde46380	-0.111517906
33	0x3ee664a6	0.44998664
34	0xbe9a9832	-0.3019424
35	0xbe58fdb3	-0.21190529
36	0xbd5f1b8e	-0.054469638
37	0xbe6e8483	-0.23292737
38	0xbdf322ad	-0.11871848
39	0xbd0b2da7	-0.033979084
40	0xbcd3abde	-0.025838789
41	0xbcc7a1db	-0.02436917
42	0xbe83b324	-0.2572261
43	0xbc9b9a46	-0.018994462
44	0x3d8cf0e6	0.06881885
45	0x3da5b801	0.080917366
46	0xbea535ec	-0.32267702
47	0x3c8ee953	0.017445242
48	0x3de939b0	0.11387956
49	0x3d258763	0.040412318
50	0x3cd57d0d	0.026060605
51	0xbe787ed8	-0.24267137
52	0xbbeda8d4	-0.007252792
53	0xbe4f8dce	-0.20268938
54	0x39afe256	0.00033547234
55	0xbd4a2f10	-0.04936129
56	0xbe2e5cb6	-0.17027554
57	0xbde420eb	-0.11139091
58	0x3e21f075	0.15814383
59	0x3e8181e2	0.25294405
60	0x3dc717cd	0.097213365
61	0xbedab068	-0.42712712
62	0xbea82b8b	-0.3284572
63	0x3df8b2f9	0.12143511
64	0xbe4f5a0a	-0.20249191
65	0xbde9b3b9	-0.114112325
66	0x3e39cf32	0.18145445
67	0x3d97fa27	0.0742076
68	0xbbd82823	-0.0065965815
69	0xbde53abc	-0.11192843
70	0xbda692a0	-0.08133435
71	0xbddf79a7	-0.10911875
72	0x3c2ab6db	0.010419573
73	0xbd34b6ea	-0.044119753
74	0x3d31ea86	0.04343655
75	0xbe531493	-0.20613317
76	0xbf133486	-0.5750202
77	0x3d7c0521	0.06152833
78	0x3d517532	0.051137157
79	0xbcaa1cd7	-0.020765705
80	0xbd6d352d	-0.05791204
81	0xbe0bc489	-0.13649191
82	0xbe76485c	-0.2405104
83	0x3d505647	0.05086353
84	0xbbe5137b	-0.0069908476
85	0x3df5fd59	0.12011213
86	0x3d66b1c6	0.05632188
87	0x3e2522e7	0.16126595
88	0xbdaa0de5	-0.083034314
89	0x3e8800d9	0.26563147
90	0xbe603526	-0.21895275
91	0x3daa3022	0.08309962
92	0x3da444a3	0.08020904
93	0xbdb05a6e	-0.08610998
94	0x3ee21987	0.441601
95	0xbc564720	-0.013078481
96	0xbe155fb1	-0.14587285
97	0xbd68dd3f	-0.05685162
98	0xbdbad3ad	-0.09122405
99	0xbe10a3a2	-0.14124921
100	0xbe147614	-0.14498168
101	0x3e85353f	0.26017186
102	0x3d64343d	0.05571388
103	0xbd685e39	-0.056730483
104	0x3d4a31b9	0.049363825
105	0x3ddbf382	0.10739805
106	0xbccb8a25	-0.024846146
107	0x3b9c9599	0.0047785756
108	0xbdd857e5	-0.105636396
109	0xbe43aa4a	-0.19107929
110	0xbd4077b0	-0.046989143
111	0x3d4f6a32	0.050638385
112	0xbdecd9ef	-0.11565005
113	0xbe7f1601	-0.24910738
114	0xbebbd5b7	-0.3668649
115	0xbf03edc8	-0.515347
116	0x3e2ffa5e	0.17185351
117	0xbcb405b5	-0.021975378
118	0xbcb84520	-0.022493899
119	0xbe298346	-0.16553983
120	0x3cf362d4	0.02971021
121	0xbe2c1c12	-0.16807583
122	0xbd86550e	-0.06559192
123	0xbd5ac7ad	-0.053413082
124	0xbe172ed5	-0.14763959
125	0x3b1f691c	0.0024324125
126	0xbe574cb0	-0.21025348
127	0xbca58395	-0.020204345
128	0x3d8c4325	0.06848744
129	0xbed647a2	-0.41851526
130	0xbca52d10	-0.020163089
131	0xbd9a7b67	-0.075430684
132	0xbf2a830a	-0.666062
133	0xbd355a8f	-0.044275817
134	0xbd14db95	-0.036342222
135	0xbe46a2d7	-0.19398056
136	0xbd9b7855	-0.07591311
137	0x3d828b3f	0.06374215
138	0x3eb691fc	0.35658252
139	0x3cef3140	0.029198289
140	0xbda98454	-0.08277193
141	0xbd10bdc7	-0.035337236
142	0xbe0bb38a	-0.13642707
143	0xbe0530a1	-0.13006832
144	0xbed81581	-0.42203906
145	0xbd9dba74	-0.07701579
146	0xbe651bfb	-0.22373955
147	0xbe01c578	-0.12672985
148	0xbe0b5426	-0.13606319
149	0xbcd4c627	-0.025973393
150	0x3e32ab12	0.1744807
151	0xbdac78b8	-0.08421463
152	0xbd461173	-0.048356485
153	0x3df4fc19	0.11962146
154	0xbe2d9409	-0.16951002
155	0x3e91ecde	0.28501028
156	0x3e3a0255	0.18164952
157	0x3d7ff970	0.06249374
158	0x3d978a91	0.07399476
159	0x3d4b8d3b	0.049695235
160	0xbd4b4b86	-0.04963257
161	0xbd769c09	-0.0602074
162	0xbdc77057	-0.09738224
163	0x3b8550fc	0.004068492
164	0xbe7fc41a	-0.2497715
165	0x3eb34282	0.3501168
166	0x3e60579e	0.21908423
167	0xbf19cccd	-0.60078126
168	0x3dffd7a0	0.12492299
169	0x3ef7e539	0.4841707
170	0xbf69de8f	-0.9135522
171	0x3e4e311c	0.20135921
172	0xbe7f1420	-0.24910021
173	0xbe3efe00	-0.18651581
174	0x3e8314c9	0.25601795
175	0x3c387489	0.011258253
176	0xbd7ecc26	-0.06220641
177	0xbca354bf	-0.019937871
178	0x3e05c4e7	0.13063394
179	0xbc77c183	-0.01512182
180	0x3dd40f85	0.103545226
181	0x3d36c75b	0.044623714
182	0xbeb10827	-0.34576532
183	0xbded1b78	-0.11577505
184	0xbcb4ea03	-0.022084242
185	0xbe88e1a5	-0.26734653
186	0x3d32c664	0.04364623
187	0x3e585c3e	0.21128938
188	0xbd6ed1a6	-0.058305405
189	0x3e38cb68	0.18046343
190	0xbdd98d2d	-0.1062263
191	0xbd61eed4	-0.055159405
192	0x3e201bb0	0.15635562
193	0xbd975a2f	-0.07390248
194	0xbc765e5b	-0.0150371445
195	0xbc875bb7	-0.016523225
196	0xbddeec87	-0.10884958
197	0x3d427cc1	0.047482256
198	0xbdb60e1a	-0.088894084
199	0xbc855ab8	-0.01627861
200	0x3e8db572	0.27677494
201	0xbbf7af3c	-0.0075587314
202	0xbf1a9dd6	-0.6039709
203	0xbe337df8	-0.17528522
204	0xbe9e3fe6	-0.30908126
205	0xbed1d2bf	-0.409811
206	0xbdefdc71	-0.11711968
207	0x3e1ff1ae	0.15619537
208	0xbd5067b3	-0.050880145
209	0xbdd9427a	-0.106083825
210	0xbe9ec9b2	-0.31013256
211	0xbd0bf4e4	-0.034169093
212	0x3bf33347	0.007421884
213	0xbb9af669	-0.0047290814
214	0x3db903d8	0.09033936
215	0xbd381ce7	-0.04494944
216	0xbe16f773	-0.14742832
217	0xbb1940bd	-0.0023384534
218	0xbd935133	-0.07193222
219	0xbe395f81	-0.18102838
220	0x3ef077d2	0.46966416
221	0x3db6bfe2	0.089233175
222	0xbe84bf55	-0.25927225
223	0xbe18b61a	-0.14913216
224	0xbcc98916	-0.0246015
225	0xbd01be38	-0.031675547
226	0xbd3eac97	-0.046551313
227	0x3c421f14	0.01184823
228	0x3c6ee88a	0.014581809
229	0x3b6a589f	0.0035758389
230	0xbd73298b	-0.05936579
231	0x3bd33f22	0.006446735
232	0x3c5b757d	0.013394711
233	0xbca6f278	-0.02037929
234	0x3d4b2bdc	0.049602374
235	0x3ee7b85c	0.45257843
236	0x3e2d38f6	0.1691626
237	0x3ebcf9ab	0.36909232
238	0x3d06a211	0.032869402
239	0x3ce87643	0.028376704
240	0x3d639fd2	0.05557234
241	0xbd94eb1f	-0.07271408
242	0x3e2cf2e9	0.16889538
243	0x3dcef4e5	0.10105304
244	0xbbbe6f1c	-0.005811585
245	0x3c6f9b97	0.014624498
246	0xbdcda45b	-0.10041114
247	0xbe376b8d	-0.17912121
248	0x3e42059e	0.18947455
249	0x3e9ede6e	0.31029075
250	0x3da6662b	0.08124956
251	0xbe4ffd9b	-0.20311587
252	0xbdcf8a5c	-0.10133812
253	0xbee4ec09	-0.4471133
254	0xbd7162d8	-0.058932155
255	0xbdab60f8	-0.08368105

conv2.bias f4 [128]
0	0xbe5edb33	-0.21763305
1	0xb7ad2976	-2.0642514e-05
2	0xb788da90	-1.631424e-05
3	0xbe608e04	-0.21929175
4	0x3e819c3d	0.25314513
5	0xb94f26a0	-0.00019755447
6	0xbc4badef	-0.012431606
7	0xbe4822f7	-0.19544588
8	0xb718ecc2	-9.1150305e-06
9	0xbe5b791e	-0.21432921
10	0xbe38de2f	-0.18053506
11	0xbcfda397	-0.030961795
12	0xbdc5f479	-0.0966577
13	0xb7d8b2b4	-2.5832422e-05
14	0xb7f1ef8d	-2.8840988e-05
15	0xbe68ec97	-0.22746502
16	0xbed18c30	-0.40927267
17	0xb87da98d	-6.0477807e-05
18	0xb784ad52	-1.5816335e-05
19	0xb862de65	-5.408972e-05
20	0xbd915966	-0.070971295
21	0xb5ba1a03	-1.386565e-06
22	0xb5b0d61c	-1.3175336e-06
23	0xb6e82d97	-6.919446e-06
24	0xba55dddf	-0.00081583665
25	0xbebed051	-0.37268308
26	0xbb88c17b	-0.0041734553
27	0xb7ec8b9a	-2.81984e-05
28	0x3dad789b	0.08470269
29	0x3de19e05	0.11016468
30	0xb8aec199	-8.333027e-05
31	0xbe089dc3	-0.13341431
32	0xb8914d2e	-6.9285146e-05
33	0xb79ad502	-1.845742e-05
34	0xb75f3950	-1.330518e-05
35	0xbece5f10	-0.40306902
36	0x3def9743	0.11698773
37	0xb8bc01e9	-8.9648944e-05
38	0xbe3f8276	-0.1870211
39	0xbdd315e3	-0.10306909
40	0xb6f11eb2	-7.185933e-06
41	0xbe4e6dd7	-0.20159088
42	0xb8151f9f	-3.5553818e-05
43	0xb87c39f5	-6.013546e-05
44	0xb8c1776b	-9.2252005e-05
45	0xbe8874d1	-0.26651624
46	0xbe82ab2d	-0.25521222
47	0xb8054124	-3.1770338e-05
48	0xb7d4d40e	-2.5371115e-05
49	0xb6a58db6	-4.9338805e-06
50	0xb68f7122	-4.2749025e-06
51	0xb6e8c348	-6.9368725e-06
52	0xbd7d029c	-0.061770067
53	0xb768ffda	-1.3887848e-05
54	0xb61097a8	-2.1545948e-06
55	0xbea1bf77	-0.3159139
56	0xba28eb36	-0.00064437406
57	0xbe76440c	-0.24049395
58	0xb6b27f68	-5.3196454e-06
59	0xb8a9ea6b	-8.102212e-05
60	0xbe3455e1	-0.17610885
61	0xb7182ea8	-9.070769e-06
62	0xb75b4ce8	-1.3071323e-05
63	0xbbe9fb94	-0.007140586
64	0xbe150d15	-0.14555772
65	0xb7bec442	-2.2741155e-05
66	0xb879ad62	-5.95277e-05
67	0xb774a104	-1.4581023e-05
68	0xbcdfd5e1	-0.027323665
69	0xb810f4de	-3.4560326e-05
70	0xbf21ca51	-0.63199335
71	0xbeb62c14	-0.35580504
72	0xb935e244	-0.00017345796
73	0xb712cfb8	-8.750641e-06
74	0xbd2d7875	-0.042351205
75	0xb7aeeb2b	-2.0851925e-05
76	0xb97debaf	-0.00024215759
77	0xb8bcfae8	-9.0112735e-05
78	0xb7fd8eb5	-3.0226403e-05
79	0x3ca3b2d6	0.019982737
80	0xb693f1fa	-4.409111e-06
81	0xb6a671b0	-4.9604205e-06
82	0xbeb7da07	-0.3590853
83	0xbe634a5d	-0.22196336
84	0xbe1b70d9	-0.15179767
85	0x3eea2568	0.45731664
86	0xba1fdbc1	-0.00060981145
87	0x3dba0623	0.09083202
88	0xb7d22d2c	-2.5054986e-05
89	0xb7a816ce	-2.003778e-05
90	0xbd9ebe6d	-0.077511646
91	0xbeef5738	-0.4674623
92	0xbe3d051d	-0.18458982
93	0xbe6a1d4a	-0.22862735
94	0xbcab80bb	-0.020935407
95	0xbedadf2c	-0.42748392
96	0x3d343e65	0.044004817
97	0xbe803caa	-0.25046283
98	0xb70264f3	-7.772108e-06
99	0xb7285851	-1.0034143e-05
100	0x3db317b0	0.087447524
101	0x3ae00b8c	0.0017093285
102	0xbe8c8927	-0.2744839
103	0xbec0c5a3	-0.37650785
104	0xb8188282	-3.636117e-05
105	0xb6c166d0	-5.763817e-06
106	0xb710f346	-8.63971e-06
107	0xb79968ca	-1.8287818e-05
108	0xb502468c	-4.8531433e-07
109	0xb75b6c60	-1.307865e-05
110	0xbecf273a	-0.40459615
111	0xb578db97	-9.2706745e-07
112	0xbe52fb47	-0.20603667
113	0xbe1efabd	-0.15525337
114	0x3db47ee9	0.08813269
115	0xb7757d4b	-1.463231e-05
116	0x3e0a777c	0.13522142
117	0xb86e7f5a	-5.6862227e-05
118	0xbd2726d1	-0.040808503
119	0xbe577729	-0.2104155
120	0xb6dce518	-6.583181e-06
121	0xbe61ed13	-0.22063093
122	0xb7280cd8	-1.0016571e-05
123	0xb76c46af	-1.40831535e-05
124	0xb6a3f3e3	-4.8861707e-06
125	0xbe63ca95	-0.22245248
126	0xb93557ff	-0.00017294286
127	0xba87aa3b	-0.0010350415

fc1.weight f4 [64, 2048]
0	0xbda85c3e	-0.08220719
1	0xbe38d479	-0.18049802
2	0xbea7ddc7	-0.3278639
3	0x3e94219f	0.289319
4	0xbcb37e7d	-0.0219109
5	0x3ce2754f	0.027643828
6	0xbe428bb8	-0.18998611
7	0xbde645fc	-0.11243817
8	0xba9e61f7	-0.0012083639
9	0xbcbfb138	-0.023399934
10	0xbe884931	-0.2661834
11	0x3e0ace77	0.13555323
12	0x3e106a1c	0.14102978
13	0x3e07bb41	0.13255025
14	0xbea0072d	-0.31255475
15	0x3cbc4ffc	0.022987358
16	0xb6d3212f	-6.292153e-06
17	0xb7558572	-1.27268595e-05
18	0xb74d144f	-1.2223681e-05
19	0xb5c9e19b	-1.5041327e-06
20	0xb71c932c	-9.332591e-06
21	0xb78d6b03	-1.6858341e-05
22	0xb6c85cb0	-5.9712547e-06
23	0xb467ca7c	-2.1587215e-07
24	0xb757daf4	-1.2865978e-05
25	0xb795d158	-1.7859667e-05
26	0x367db716	3.7806508e-06
27	0x37051f68	7.93473e-06
28	0xb6a6af33	-4.9675814e-06
29	0xb71456e0	-8.841715e-06
30	0x378ab314	1.6534272e-05
31	0xb586fe7e	-1.0057845e-06
32	0xb78392ad	-1.5684718e-05
33	0x367b07ae	3.7406385e-06
34	0xb637d1ad	-2.7391172e-06
35	0x360eae17	2.1260983e-06
36	0xb541d694	-7.2210355e-07
37	0xb6ce4906	-6.1477795e-06
38	0x36a1fc20	4.827525e-06
39	0x3620187b	2.3856107e-06
40	0xb4d1e0c9	-3.9092836e-07
41	0x37388109	1.0997298e-05
42	0xb5c0a5c2	-1.4353357e-06
43	0x37623a32	1.3484199e-05
44	0xb675031c	-3.6509655e-06
45	0x36eb9cbc	7.021792e-06
46	0xb683b922	-3.9256565e-06
47	0xb5c88aef	-1.4941596e-06
48	0xbdda2f57	-0.106535606
49	0xbaadd43a	-0.0013262101
50	0xbda1da00	-0.07902908
51	0x3ddaa1f2	0.1067542
52	0xbbcfebdc	-0.0063452553
53	0x3e7bb159	0.24579372
54	0x3da98bc4	0.08278611
55	0x3e1cfaed	0.15330096
56	0x3dafece5	0.08590106
57	0x3d5fae85	0.054609794
58	0xbe3ae2a5	-0.1825052
59	0x3d00a6c8	0.031409055
60	0x3d104733	0.03522415
61	0x3e279720	0.16366243
62	0xbdf76e62	-0.12081601
63	0xbe06eb1d	-0.13175626
64	0xbc2676ee	-0.010160191
65	0xbe07c519	-0.1325878
66	0xbdef6389	-0.11688907
67	0x3df99be4	0.12187937
68	0xba455cdf	-0.00075287925
69	0xbe74521b	-0.23859446
70	0xbbcb5d17	-0.0062061655
71	0xbd4cb4fc	-0.049977288
72	0xbdb1aa98	-0.08675116
73	0xbc958738	-0.018252954
74	0x3bc0c212	0.00588251
75	0x3e7625d8	0.24037874
76	0x3c959bb9	0.01826273
77	0xbcdcd710	-0.026958019
78	0xbe25278b	-0.16128366
79	0x3e4561aa	0.19275537
80	0xb9876565	-0.0002582475
81	0xb978984c	-0.00023707858
82	0xb80a9d3c	-3.30482e-05
83	0xb8ad6c0b	-8.2694074e-05
84	0xb8005949	-3.060073e-05
85	0xb95db18d	-0.00021142345
86	0xb5e6dbcb	-1.7200304e-06
87	0x3899aea0	7.328135e-05
88	0xb825f095	-3.9563125e-05
89	0xb9420b0d	-0.00018505398
90	0xb78fd25f	-1.714489e-05
91	0x395dd384	0.00021154998
92	0xb866ea25	-5.5054337e-05
93	0xb902a468	-0.00012459012
94	0xb8908b8e	-6.892449e-05
95	0x364e3e3a	3.0732613e-06
96	0xbeed66dc	-0.46367538
97	0xbe1982c9	-0.14991297
98	0x3ddda4a7	0.108224206
99	0x3d0bfb40	0.034175158
100	0xbe79e152	-0.24402359
101	0xbdf4b150	-0.11947882
102	0xbdaa536e	-0.08316694
103	0x3dcc1cdb	0.09966441
104	0x3d4b9ee3	0.049712073
105	0xbe125915	-0.14291795
106	0xbdc262b9	-0.09491486
107	0x3e6aa0ef	0.22912954
108	0xbe87d841	-0.26532176
109	0xbdc762ad	-0.09735618
110	0xbdeb805b	-0.11499091
111	0xbe2702f2	-0.16309717
112	0x3e0f45b9	0.13991441
113	0xbe356d0c	-0.1771738
114	0x3e8c7ee0	0.27440548
115	0xbe67da8e	-0.22641966
116	0xbe162fd3	-0.14666681
117	0x3e28192a	0.1641585
118	0xbe187982	-0.14890102
119	0xbdf7684f	-0.12080442
120	0x3d16e77f	0.036841866
121	0xbddb6b4f	-0.10713827
122	0xbd31380a	-0.043266334
123	0x3aed39f3	0.0018098935
124	0xbd8ea311	-0.06964696
125	0xbcf3243f	-0.02968037
126	0x3d2c67f7	0.042091336
127	0xbe976c37	-0.2957475
128	0x356222c7	8.424217e-07
129	0xb5662f84	-8.575082e-07
130	0x3681dec5	3.8704334e-06
131	0x3510f065	5.3994e-07
132	0xb60965cc	-2.0473844e-06
133	0x35a7de30	1.2507135e-06
134	0x359c5daf	1.1650171e-06
135	0xb680fd1d	-3.8441635e-06
136	0x3641023f	2.8760549e-06
137	0x335ee985	5.1900788e-08
138	0xb604fe7c	-1.9817662e-06
139	0xb5ba3771	-1.3874215e-06
140	0x3678d279	3.707739e-06
141	0xb622a3b3	-2.4235167e-06
142	0x369dcbfc	4.7027115e-06
143	0x342c7d7e	1.6064402e-07
144	0xbea679ce	-0.32514805
145	0xbe290fcd	-0.16509934
146	0x3cc4fb37	0.02404557
147	0x3a92d8c4	0.0011203517
148	0xbe053e7a	-0.13012114
149	0x3d7c170a	0.06154541
150	0xbe485319	-0.19562949
151	0x3d97dc3a	0.07415052
152	0xbe3445bd	-0.17604728
153	0x3c556897	0.013025424
154	0x3dfdd9d1	0.12395061
155	0xbda279b7	-0.079333715
156	0xbe806c88	-0.25082803
157	0x3e2263f9	0.15858449
158	0x3e8ed741	0.278986
159	0xbe886547	-0.26639768
160	0x3ccd3c75	0.025053242
161	0x3d8f19ad	0.06987319
162	0xbc653fc3	-0.013992253
163	0xbe303ff7	-0.172119
164	0x3d1c5b1d	0.03817283
165	0x3e86cc9f	0.26327989
166	0x3e43b6c8	0.19112694
167	0xbd5f1843	-0.054466497
168	0x3daac98c	0.08339223
169	0xbaeccb7a	-0.0018066012
170	0x3e8202e4	0.2539283
171	0x3d86a448	0.06574303
172	0xbe400b11	-0.18754221
173	0xbd9ed876	-0.077561304
174	0x3dc9f635	0.098614134
175	0xbd201241	-0.03907991
176	0xbc684934	-0.014177609
177	0x3b579bd2	0.0032899273
178	0xbcd713c5	-0.026254544
179	0xbcc8eb40	-0.024526238
180	0xbd3cfd34	-0.04613991
181	0xbd2f0b5e	-0.04273545
182	0xbcff264b	-0.03114619
183	0xbc421b5d	-0.011847344
184	0xbd03a032	-0.032135196
185	0xbd5b816b	-0.05359022
186	0xbcb05b3d	-0.02152788
187	0xbc19919a	-0.009373093
188	0xbd473d94	-0.04864271
189	0xbd2df6fd	-0.042471875
190	0xbd08bf0d	-0.033385325
191	0xbc90e927	-0.0176893
192	0xbe121a1f	-0.14267777
193	0x3e4fada5	0.20281084
194	0xbe180502	-0.1484566
195	0xbea03867	-0.31293032
196	0xbe1bfaaa	-0.1523234
197	0x3d9a6f58	0.075407684
198	0xbe5798fa	-0.2105445
199	0xbeb6b83a	-0.3568743
200	0xbeaff149	-0.34363773
201	0xbd882877	-0.06648343
202	0x3d3432b1	0.043993656
203	0xbc9b7287	-0.01897551
204	0xbe2614aa	-0.1621882
205	0xbe9f7622	-0.31144816
206	0xbeaba391	-0.3352323
207	0xbeeff423	-0.4686595
208	0xb7557565	-1.2723122e-05
209	0xb7a0d054	-1.9170497e-05
210	0xb79626f5	-1.7899534e-05
211	0xb79688c1	-1.7945074e-05
212	0xb7313ea5	-1.0564608e-05
213	0xb6acba4e	-5.147688e-06
214	0xb78d2983	-1.682784e-05
215	0xb76bd863	-1.4057473e-05
216	0xb7d2f0cf	-2.5146086e-05
217	0xb7517fe1	-1.2487145e-05
218	0xb7263c28	-9.908377e-06
219	0xb79ed9c0	-1.8936465e-05
220	0xb7f0a69c	-2.8687813e-05
221	0xb7dae83f	-2.6095773e-05
222	0xb7fffa57	-3.0514942e-05
223	0xb7e453df	-2.7218774e-05
224	0xb5e9a7d6	-1.74087e-06
225	0xb5db7b1e	-1.6352603e-06
226	0xb5e278c4	-1.687346e-06
227	0xb5a9e906	-1.26593e-06
228	0xb3c357cd	-9.096366e-08
229	0xb5c009b9	-1.4307944e-06
230	0xb61457d0	-2.2104832e-06
231	0x351602c5	5.5883385e-07
232	0x36043688	1.9701274e-06
233	0xb4e4a97e	-4.259163e-07
234	0x355a7fcc	8.13973e-07
235	0x3532a022	6.654319e-07
236	0xb61db7e7	-2.3501868e-06
237	0x36220879	2.4144813e-06
238	0xb5c6886a	-1.4791851e-06
239	0x340ddb5e	1.3211454e-07
240	0xbea48302	-0.321312
241	0xbe8ff232	-0.28114468
242	0xbbf4de39	-0.00747278
243	0x3e95c8a0	0.29254627
244	0xbeaa5b06	-0.3327257
245	0xbe13edaa	-0.1444613
246	0xbe922d60	-0.28550243
247	0x3ea0deaf	0.31419894
248	0xbe6d5a42	-0.23178962
249	0xbe471dd6	-0.19444975
250	0xbe848545	-0.25882927
251	0x3d4b2cb3	0.049603175
252	0xbde5e9fa	-0.11226268
253	0x3c71bd79	0.014754646
254	0xbede70f9	-0.43445566
255	0x3e95051b	0.29105458

fc1.bias f4 [64]
0	0x3e58bf09	0.21166624
1	0xb6876f29	-4.0362543e-06
2	0xba2a3e88	-0.0006494303
3	0x3ed3fd3c	0.4140414
4	0xb63ee18c	-2.8443492e-06
5	0x3e8a4ddb	0.27012524
6	0xb81fce39	-3.8100614e-05
7	0x3ef6b1fb	0.48182663
8	0xb90ccaa0	-0.00013426924
9	0x3dba236c	0.090887874
10	0x3de36188	0.11102587
11	0xb7d0782e	-2.4851495e-05
12	0xbe639f58	-0.22228754
13	0x3cbec271	0.023286076
14	0xbed630ea	-0.41834193
15	0x3d91edfc	0.0712547
16	0xb70f05e6	-8.5248375e-06
17	0x3d08637c	0.033298
18	0xb4851063	-2.4785103e-07
19	0x3db813e4	0.08988169
20	0x3eb09aab	0.34493002
21	0x3e48d201	0.1961136
22	0xbc991bb5	-0.01868997
23	0x3d196852	0.037453003
24	0x3d4facd9	0.05070195
25	0xb94c445e	-0.00019480425
26	0x3edb1094	0.42786086
27	0x3d8e16f3	0.06937971
28	0xbe6cd359	-0.23127498
29	0x3d56c867	0.052437212
30	0xb5d01192	-1.5502321e-06
31	0xb6cd6b22	-6.121948e-06
32	0x3e039d1a	0.12852898
33	0xbe5a06c5	-0.21291645
34	0xb5d53647	-1.5885533e-06
35	0xb7ca2b6d	-2.4100498e-05
36	0xbeed29e0	-0.4632101
37	0x3db122f1	0.08649243
38	0xbe9774c1	-0.29581264
39	0x3ef09dcc	0.4699539
40	0x3df72cd7	0.120690994
41	0xbe238c80	-0.15971565
42	0xb666b332	-3.4376976e-06
43	0x3f0a8e3d	0.5412329
44	0xb695fd17	-4.4700096e-06
45	0xb682cb1e	-3.897948e-06
46	0xb95917f8	-0.00020703662
47	0x3e1dd42c	0.15412968
48	0xb901c24a	-0.00012374777
49	0xb6213342	-2.4020705e-06
50	0xbd892ae9	-0.066976376
51	0x3e97b970	0.29633665
52	0x3d13608c	0.035980746
53	0xbd3d30b0	-0.04618901
54	0x3f0effb1	0.55858904
55	0xb6017ded	-1.9295796e-06
56	0xbe269124	-0.16266304
57	0x37165e32	8.962628e-06
58	0x3ec3c366	0.38235015
59	0x3e82013c	0.25391567
60	0xb69526d0	-4.4450644e-06
61	0xbe4fe8b2	-0.2030361
62	0xbda6c5ed	-0.0814322
63	0x3eeb3de7	0.45945665

fc2.weight f4 [128, 64]
0	0x3f1f413c	0.62208915
1	0x37288fb4	1.0047039e-05
2	0x3971f68e	0.000230754
3	0x3e2fcb1b	0.17167322
4	0xb737f3fa	-1.0964455e-05
5	0xbf1d4029	-0.61426026
6	0x35d8d9c8	1.6156637e-06
7	0xbea73a03	-0.32661447
8	0xb8599e59	-5.1884304e-05
9	0x3f3e5a5a	0.74356616
10	0xbe89c1ee	-0.2690577
11	0x370bbd17	8.3290715e-06
12	0xbea482ea	-0.3213113
13	0xbec8daae	-0.3922934
14	0xbeb3a465	-0.3508636
15	0x3f2b0ba8	0.6681466
16	0x37c5c531	2.3576054e-05
17	0x3ec7fb28	0.39058805
18	0x3683277a	3.9087e-06
19	0xbda21ebe	-0.0791602
20	0xbf714f98	-0.94262075
21	0x3d6ae6fb	0.057349186
22	0xbe792223	-0.24329428
23	0x3db6282d	0.08894382
24	0xbe9b79ee	-0.30366462
25	0x37f79f15	2.9518773e-05
26	0xbdccf4b7	-0.10007613
27	0xbeea17c2	-0.4572125
28	0xbdea7442	-0.11447956
29	0xbe898e3f	-0.26866338
30	0xb65aca21	-3.2602186e-06
31	0xb62c4c1f	-2.5674306e-06
32	0xbd6aaf6e	-0.05729621
33	0xbd15d4fe	-0.03658008
34	0x3719a40e	9.157708e-06
35	0xb6d49351	-6.3352422e-06
36	0xba35ec1b	-0.00069397845
37	0xbe031af0	-0.12803245
38	0xbe04e80a	-0.12979141
39	0x3d86795c	0.06566116
40	0xbdfe4dc9	-0.1241718
41	0x3e43aaa3	0.19108061
42	0xb58ecec8	-1.0640006e-06
43	0xbd583196	-0.052781664
44	0xb7523f51	-1.2531717e-05
45	0x3241ddff	1.1284555e-08
46	0x37459ec0	1.1779077e-05
47	0xbf78099a	-0.9688965
48	0xb888a8f8	-6.516458e-05
49	0x3738c7df	1.1013791e-05
50	0xbf218591	-0.6309443
51	0xbef29746	-0.47381037
52	0xbc77c4bb	-0.015122588
53	0xbcb5211d	-0.022110516
54	0x3d9bbac7	0.07603984
55	0xb6821ae4	-3.8774324e-06
56	0xbd08fdf2	-0.033445306
57	0xbdda8f1a	-0.10671826
58	0xbdacb9ca	-0.08433874
59	0x3e27270b	0.16323487
60	0xb6c3a53c	-5.8306887e-06
61	0xbd6a0529	-0.057133827
62	0xbcad96b1	-0.02119002
63	0x3e9f23c6	0.3108198
64	0xb79212b2	-1.7413262e-05
65	0xb72aee4b	-1.01882715e-05
66	0x3700b6db	7.671969e-06
67	0x35d01ad2	1.5505013e-06
68	0x374feade	1.2392846e-05
69	0xb6e0791a	-6.6898183e-06
70	0x36352e40	2.6998023e-06
71	0xb87601d0	-5.865266e-05
72	0x36d88b96	6.4535516e-06
73	0xb86da5e8	-5.6659715e-05
74	0xbacca8da	-0.0015614287
75	0x3706bbfe	8.030793e-06
76	0xb8772998	-5.8928126e-05
77	0xb89f410d	-7.5938275e-05
78	0xb73a77e7	-1.1114381e-05
79	0xb8814434	-6.163903e-05
80	0x3255275c	1.2407181e-08
81	0xb8b37303	-8.556808e-05
82	0x3708f0bb	8.162281e-06
83	0xb89f7284	-7.603041e-05
84	0xb7fe732c	-3.033279e-05
85	0xb7d7761f	-2.5685002e-05
86	0xb85ffcd5	-5.340281e-05
87	0xb8710062	-5.7459234e-05
88	0xb8183e3e	-3.629759e-05
89	0xb703d48b	-7.857695e-06
90	0xb5b34df2	-1.3359224e-06
91	0xb8140b13	-3.5296263e-05
92	0x36538456	3.151848e-06
93	0x36cb1bde	6.0531156e-06
94	0x362f0a2b	2.608295e-06
95	0xb679aa64	-3.7203072e-06
96	0x370914fd	8.170723e-06
97	0xb82434c4	-3.914979e-05
98	0x369eff8c	4.7385165e-06
99	0x36b8d351	5.508228e-06
100	0xb6c46949	-5.853512e-06
101	0x37aee2dd	2.0848058e-05
102	0xb76637e9	-1.3722086e-05
103	0xb683bb51	-3.9259107e-06
104	0xb7454361	-1.1757803e-05
105	0x36c7fb9a	5.9599524e-06
106	0x363364f8	2.673185e-06
107	0xb7c08e64	-2.295449e-05
108	0x372cdeaa	1.0303842e-05
109	0x366b463a	3.5058606e-06
110	0x359062fc	1.0757644e-06
111	0xb825caf3	-3.9528077e-05
112	0xb7151684	-8.886334e-06
113	0x361d04e6	2.3397674e-06
114	0xb86dc11f	-5.668506e-05
115	0xb795d578	-1.7861588e-05
116	0xb9d1c5a8	-0.00040010852
117	0xb959fe62	-0.00020789498
118	0xb62108c4	-2.3995972e-06
119	0xb53f22ff	-7.120397e-07
120	0xba917427	-0.0011097238
121	0xb75eff71	-1.3291706e-05
122	0xb6fc9444	-7.5274456e-06
123	0x362e047c	2.593063e-06
124	0xb765ba14	-1.3692788e-05
125	0xb858eee1	-5.1720886e-05
126	0xb8c3b6e5	-9.332391e-05
127	0x378f1d7a	1.7060654e-05
128	0xbe6619fb	-0.22470848
129	0xb5895d6b	-1.0234484e-06
130	0xb73cd69f	-1.1255644e-05
131	0xbbc82297	-0.006107639
132	0x363ba106	2.79589e-06
133	0xbe5f42ec	-0.21802872
134	0x372fb8c3	1.0473831e-05
135	0x3d02dfd2	0.031951733
136	0xb7b3253e	-2.1355805e-05
137	0xbe669829	-0.22518982
138	0xbe5ceb15	-0.21574052
139	0x37004f2e	7.64783e-06
140	0x3d615787	0.055015113
141	0x3e10f638	0.14156425
142	0x3e51a4a2	0.20472959
143	0xbb9631b3	-0.0045835613
144	0x36e0e3ed	6.7022543e-06
145	0xbd2aeb9f	-0.041728612
146	0xb68078b5	-3.8287494e-06
147	0x3c4f3225	0.012646233
148	0xbd359d5d	-0.044339526
149	0xbd9b884d	-0.07594357
150	0xbd88610c	-0.06659135
151	0xbe94ba15	-0.2904822
152	0xbe0013f5	-0.12507613
153	0x37371776	1.0913112e-05
154	0xbe39ff08	-0.18163693
155	0xbdc1ff60	-0.09472537
156	0xbe20f28a	-0.15717521
157	0xbd5d5a6f	-0.054041322
158	0x368ff2bd	4.2899906e-06
159	0xb788ad56	-1.629318e-05
160	0xbe36f1f2	-0.17865732
161	0xbe8fd60d	-0.28092995
162	0xb704c113	-7.912767e-06
163	0xb6026aed	-1.9433749e-06
164	0xbe17de0b	-0.14830796
165	0xbd68617d	-0.056733597
166	0x3dfb541b	0.12271901
167	0xbd7cb272	-0.061693616
168	0xbe16593d	-0.14682479
169	0xbece343d	-0.4027423
170	0x359c912c	1.1665156e-06
171	0x3bfbd2a3	0.007685022
172	0x36c6fa8f	5.9300287e-06
173	0xb726ba08	-9.937685e-06
174	0xb898aabc	-7.2797266e-05
175	0xbea8aeec	-0.32945955
176	0xb78eed3f	-1.7038195e-05
177	0x3734f936	1.078686e-05
178	0xbe9013ce	-0.2814011
179	0x3b01e741	0.0019821676
180	0xbd589ed4	-0.052885845
181	0x3d819915	0.06328026
182	0xbe4826c7	-0.19546042
183	0xb5cf3974	-1.5439423e-06
184	0x3e4fbfbc	0.20287985
185	0xbe3378e7	-0.1752659
186	0xbe0365df	-0.1283183
187	0xbdc1ec19	-0.0946886
188	0x36faf2e1	7.4788554e-06
189	0x3e1212dc	0.14265007
190	0xbdc27edc	-0.09496853
191	0xbdd4de94	-0.10394016
192	0xbdeb1e06	-0.11480336
193	0xb6ce39d7	-6.146012e-06
194	0x390aaa89	0.00013224235
195	0xbe1b0242	-0.1513758
196	0x36d2902a	6.2752706e-06
197	0x3ca0747e	0.019586798
198	0x374ea344	1.231657e-05
199	0xbdca59df	-0.09880423
200	0x38832fd3	6.255475e-05
201	0x3cf83c54	0.030302204
202	0xbcec56b2	-0.028849933
203	0x362085ac	2.3919665e-06
204	0xbd94ec16	-0.07271592
205	0xbe20d571	-0.15706421
206	0xbe282e74	-0.1642397
207	0xbd5d20cf	-0.053986367
208	0xb6439493	-2.9143746e-06
209	0xbe8e1390	-0.277493
210	0x374410b9	1.1686404e-05
211	0x3f115f50	0.5678606
212	0xbcb53b5f	-0.022123037
213	0x3d871f74	0.06597796
214	0xbe3c5134	-0.18390352
215	0xbdebdb1a	-0.115164
216	0x3da46534	0.080271155
217	0xb7d2135e	-2.504297e-05
218	0xbda07949	-0.07835633
219	0xbeab20e5	-0.33423534
220	0xbf54f7ea	-0.83190787
221	0x3e4f4699	0.20241775
222	0x37422e63	1.1574101e-05
223	0x36183827	2.268245e-06
224	0x3e241120	0.16022158
225	0x3e3ee4b0	0.18641925
226	0x36ebf396	7.031903e-06
227	0xb735fe87	-1.08477025e-05
228	0xbdff5a8a	-0.12468441
229	0x3ee15fb5	0.4401833
230	0x3db3de5f	0.08782648
231	0xbe303a1b	-0.17209665
232	0x3d8d2750	0.06892264
233	0xbe0ce6ac	-0.1375987
234	0x36d1d5bc	6.2535673e-06
235	0xbd49772b	-0.049185913
236	0xb749a2ba	-1.2018421e-05
237	0xb6a6718d	-4.9604046e-06
238	0xb5db0564	-1.631834e-06
239	0xbe59cc7c	-0.21269411
240	0x38af1f53	8.350485e-05
241	0x3709623c	8.188708e-06
242	0xbc6e07ba	-0.014528209
243	0x3e2aa22b	0.16663425
244	0xbe2c6b62	-0.16837838
245	0x3e0428f9	0.12906255
246	0xbecf8912	-0.40534264
247	0x3730effe	1.0546295e-05
248	0xbe0bda02	-0.13657382
249	0x3f35d1ed	0.71023446
250	0xbeb7458c	-0.35795248
251	0xbe86044a	-0.26175147
252	0x36b34df2	5.3436897e-06
253	0x3e31d318	0.17365682
254	0x3ddc9563	0.10770681
255	0x3e21c426	0.15797481

fc2.bias f4 [128]
0	0x3e8ae89c	0.27130592
1	0xb8c184dd	-9.227705e-05
2	0x3e0f1734	0.13973695
3	0xbdfae974	-0.12251559
4	0xb80815be	-3.2445176e-05
5	0xbdfe8da6	-0.12429361
6	0xbe9f5e7e	-0.3112678
7	0xbe5e3793	-0.21700887
8	0xb7d63d0f	-2.553922e-05
9	0x3dceef54	0.10104242
10	0x3de42d89	0.11141498
11	0xbe1e4d84	-0.15459257
12	0xbdefbee2	-0.1170633
13	0x3e806301	0.25075534
14	0x3eaec0e8	0.3413155
15	0xbecd899a	-0.40144044
16	0xbe2465e4	-0.16054493
17	0xbd8d6c79	-0.06905455
18	0xbdf403a5	-0.11914758
19	0x3e882edd	0.26598254
20	0x3d0135a2	0.03154529
21	0xb83dc75e	-4.5246787e-05
22	0x3dea7e29	0.114498444
23	0x3db76efb	0.08956715
24	0xbe0a038a	-0.13477913
25	0x3d7aea51	0.061258618
26	0xbe1e4af1	-0.15458275
27	0xbce4c8ae	-0.027927723
28	0xbd5f18dd	-0.05446707
29	0xbe0dbb78	-0.13841045
30	0x3d5bc9bf	0.053659197
31	0xb827aa45	-3.997448e-05
32	0xbdf6e8b4	-0.12056103
33	0xbcd93e6e	-0.026519027
34	0xbcb269a3	-0.021778887
35	0x3ed6fa52	0.41987854
36	0x3e064cb3	0.13115196
37	0xbdbab3eb	-0.09116348
38	0xb7c84543	-2.387411e-05
39	0x3f02c74a	0.5108534
40	0xb8235735	-3.8943446e-05
41	0x3eb07c4d	0.34469834
42	0x3cc8438c	0.024446271
43	0xbe4e2a88	-0.20133412
44	0x3ec0ddda	0.3766926
45	0x3e0f7811	0.14010645
46	0x3e85742a	0.2606519
47	0xbdb54998	-0.088519275
48	0xb89faada	-7.6135344e-05
49	0xbc3814d0	-0.011235431
50	0xbc8e4019	-0.017364549
51	0xbcdf009b	-0.027221968
52	0x3ecc944e	0.39956897
53	0xbf144054	-0.57910657
54	0xb84b319f	-4.8445185e-05
55	0x3eefb1d6	0.46815366
56	0xbda32457	-0.07965916
57	0x3d0af27f	0.03392267
58	0xbe11dcbc	-0.1424436
59	0x3f15e7ba	0.5855671
60	0x3ed2b0ed	0.4115061
61	0xbf141bff	-0.5785522
62	0xbe5b8080	-0.21435738
63	0xbda98f06	-0.08279233
64	0xbdd96200	-0.10614395
65	0xbe17e175	-0.14832099
66	0xbe2058fc	-0.15658945
67	0x3c778b67	0.01510892
68	0xbeb8b5a1	-0.36076072
69	0xbe1d963c	-0.15389341
70	0xbd5ff7e1	-0.054679755
71	0x3db18ede	0.08669828
72	0xbe21acb1	-0.15788533
73	0x3d45dba7	0.04830518
74	0xbaa0c115	-0.0012264574
75	0xbe4d5997	-0.20053707
76	0xbce8361d	-0.028346116
77	0xbf413214	-0.7546704
78	0xbe84d143	-0.25940904
79	0xbde38be3	-0.11110666
80	0xbdc001c0	-0.09375334
81	0x3d907134	0.07052842
82	0xbe5d63d7	-0.21620117
83	0x3d8b1004	0.06790164
84	0xbe297785	-0.165495
85	0xbd25e447	-0.040500905
86	0x3d1dbb5d	0.03850876
87	0xbe27d466	-0.16389617
88	0xbe11bff1	-0.14233376
89	0x3e752c96	0.2394279
90	0xbd7c41f3	-0.06158633
91	0xb7cdc364	-2.452889e-05
92	0x3ca53f5e	0.020171817
93	0x3efcdbf6	0.49386567
94	0xbe99aaa4	-0.30013
95	0x3eb68f47	0.35656187
96	0xb838c0e4	-4.4048662e-05
97	0xbea2a3e2	-0.31765658
98	0xbe79e7ee	-0.2440488
99	0xb955a5a1	-0.00020374965
100	0xbd44b90e	-0.048028044
101	0x3cdae619	0.026721047
102	0x3e844c21	0.25839332
103	0xbc429bb4	-0.011877943
104	0xbe25078f	-0.16116165
105	0x3ec04873	0.37555274
106	0x3d2b6deb	0.041852873
107	0xbe396214	-0.1810382
108	0xbd9dd5e8	-0.07706815
109	0xbde066a4	-0.10957077
110	0x3c5f54c4	0.01363105
111	0xb855c92c	-5.0970513e-05
112	0xbe204542	-0.1565142
113	0xbcc3356b	-0.023829183
114	0xbd1c8d1b	-0.038220506
115	0x3e1611bd	0.14655204
116	0xb898d1f6	-7.287033e-05
117	0x3aebfe3d	0.0018004846
118	0x3cd703a4	0.026246853
119	0xbddba5b6	-0.10724966
120	0xbde62424	-0.11237362
121	0xbc6e109a	-0.014530325
122	0xbe8898a4	-0.26678956
123	0xbe14b9ea	-0.14524046
124	0x3e21c341	0.1579714
125	0xbea80ab7	-0.32820675
126	0xbe16c165	-0.14722212
127	0xbe33091f	-0.17483948

fc3.weight f4 [4, 128]
0	0xbf9c0eaf	-1.2191981
1	0xb820178a	-3.8168895e-05
2	0x3d68c930	0.056832492
3	0x3ca2a3c6	0.019853484
4	0xb814d6ae	-3.5485886e-05
5	0xbd079311	-0.033099238
6	0xbd843f33	-0.06457367
7	0x3e1e2189	0.1544248
8	0xb76c5f74	-1.4088921e-05
9	0xbe2ec99b	-0.17069094
10	0x3e6bf056	0.230409
11	0xbe0390c5	-0.12848194
12	0x3d958b45	0.07301954
13	0xbf8ac90e	-1.0842607
14	0x3bd302a2	0.006439523
15	0x3c106205	0.008812432
16	0x3e9fe833	0.3123184
17	0x3e89b0a6	0.26892585
18	0x3da7fee2	0.08202912
19	0xbe20b824	-0.15695244
20	0xbd8cbec3	-0.068723224
21	0x37986535	1.816694e-05
22	0xbe4a1cac	-0.197375
23	0xbdd361df	-0.10321402
24	0x3d42a8c6	0.047524236
25	0xbdd8d0ed	-0.105867244
26	0x3dd4f2f5	0.10397903
27	0xbe86d0fa	-0.2633131
28	0xbd6be476	-0.057590924
29	0x3e802595	0.25028673
30	0x3ea630c7	0.3245909
31	0xb5e6402c	-1.7155012e-06
32	0x3e986a50	0.2976861
33	0xbbb11fb1	-0.0054053892
34	0xbb8acc79	-0.004235801
35	0x3ca60113	0.020264184
36	0x3cc0a8d0	0.023517996
37	0x3e0aef99	0.13567962
38	0x3622449a	2.4179812e-06
39	0x3d79a37b	0.060946923
40	0xb7615565	-1.34309275e-05
41	0xbd274797	-0.040839758
42	0xbde2b0e2	-0.11068894
43	0x3da71cdf	0.081598036
44	0xbd7e2f66	-0.06205692
45	0xbcdb0d19	-0.026739644
46	0x3e320d86	0.17387971
47	0x3e6e8749	0.23293795
48	0x37555afc	1.2716973e-05
49	0xb99c7c35	-0.0002984718
50	0x3e2228d1	0.15835883
51	0x3dd31b1c	0.10307905
52	0xbe13e352	-0.14442185
53	0xbdb6cfb7	-0.08926337
54	0x3841a1ac	4.6165354e-05
55	0x3d9cb90e	0.07652484
56	0x3ea63df6	0.32469147
57	0xbce6363f	-0.028102038
58	0xbdc056a8	-0.09391528
59	0x3eb72757	0.357722
60	0xbe6d3e23	-0.23168235
61	0x3e156217	0.145882
62	0x3c97a8cd	0.018513108
63	0xbe40a51a	-0.18812981
64	0x3d289151	0.04115421
65	0xbc79c59e	-0.0152448695
66	0x3ce7e654	0.028308071
67	0x3e229ecb	0.15880887
68	0xbe187162	-0.14887002
69	0xbeb90308	-0.36135125
70	0x3e11f253	0.14252596
71	0xbe608df2	-0.21929148
72	0xbe416944	-0.18887812
73	0xbaefeb30	-0.0018304344
74	0x39bc1530	0.0003587394
75	0xbc9e8251	-0.01934925
76	0x3c113e7c	0.008864995
77	0xbe7bff02	-0.24608997
78	0x3c6ced13	0.01446082
79	0x3d556d16	0.052105986
80	0xbe79158b	-0.24324624
81	0xbd880acb	-0.066426836
82	0xbe1f9cbf	-0.15587138
83	0xbe67da86	-0.22641954
84	0x3e7efbbc	0.24900717
85	0xbe7423bc	-0.23841757
86	0x3dc46913	0.09590354
87	0xbc863dcb	-0.016386887
88	0x3d58cc36	0.052929126
89	0xbd800ec6	-0.06252818
90	0xbd07b605	-0.03313257
91	0x379e0b0d	1.8840214e-05
92	0xbddb48bb	-0.107072316
93	0xbe8e26ab	-0.27763876
94	0x3e23a53b	0.15980999
95	0xbc56d052	-0.013111191
96	0x36a81b2f	5.0099547e-06
97	0x3fdf51c6	1.744683
98	0xbcd68979	-0.026188599
99	0xb7ce410f	-2.4587409e-05
100	0x3e5d2f9f	0.21600197
101	0xbeb60fba	-0.35558873
102	0xbedaa6e0	-0.4270544
103	0x3d034a0c	0.03205304
104	0x3e1c513b	0.15265362
105	0x3d2477cf	0.04015332
106	0x3d2015e5	0.03908338
107	0xbe1c641b	-0.15272562
108	0xbf0380e2	-0.51368535
109	0x3d59d23f	0.053179022
110	0x3dc4deb8	0.09612793
111	0x366e39a5	3.5498317e-06
112	0x3e293c0a	0.1652681
113	0xbe5dd3c6	-0.21662816
114	0xbdb1888f	-0.086686246
115	0x3bcc990a	0.0062438296
116	0x37437f3d	1.1652531e-05
117	0xbe1ac874	-0.1511553
118	0x3db4a3c8	0.08820301
119	0xbd810f2e	-0.063017234
120	0xbd7536e4	-0.0598668
121	0x3e35cd8c	0.17754191
122	0xbe9898a2	-0.2980395
123	0xbe14d518	-0.14534414
124	0xbde1f124	-0.11032322
125	0xbd6b8809	-0.05750278
126	0x3f2a4598	0.6651244
127	0xbeee1550	-0.46500635
128	0x3d5b53f1	0.05354685
129	0x365c8ee2	3.2865723e-06
130	0xbd0f566a	-0.03499452
131	0x3dc0cca8	0.09414035
132	0x38076455	3.227995e-05
133	0xbe56aca2	-0.20964292
134	0xbeb231c4	-0.34803593
135	0x3de33b48	0.110952914
136	0x3697ca7e	4.523724e-06
137	0xbe6a69c7	-0.22891913
138	0x3bd6fec8	0.006561134
139	0xbe20459b	-0.15651552
140	0x3e8980dc	0.26856124
141	0xbd853370	-0.065039515
142	0xbbcac8db	-0.0061884946
143	0x3c5bb9b5	0.013410975
144	0x3e45bb26	0.19309673
145	0xbdf9089d	-0.12159846
146	0xbe0c6af7	-0.13712679
147	0xbebe5768	-0.3717606
148	0x3e534f54	0.2063573
149	0xb76883c3	-1.3858956e-05
150	0x3e47d6fd	0.19515605
151	0x3e0052d8	0.12531602
152	0x3d869b81	0.06572629
153	0xbd804d43	-0.062647365
154	0x3e6de73c	0.2323274
155	0xbd8d6c72	-0.0690545
156	0x3e4fa2ec	0.20276994
157	0x3e4dbe42	0.20092109
158	0xbb6d0b5a	-0.0036170096
159	0xb6da505e	-6.5062623e-06
160	0x3e35f18b	0.17767923
161	0xbeda6987	-0.42658636
162	0x3c6b141b	0.014348055
163	0xbfea6b26	-1.8313949
164	0x3e009335	0.12556155
165	0x3d92d335	0.07169191
166	0xb75145bc	-1.2473607e-05
167	0xbe9a040b	-0.3008121
168	0xb6ab9d09	-5.1144784e-06
169	0xbcf9f96b	-0.03051444
170	0x3da0d6a7	0.07853442
171	0xbd513b3a	-0.051081873
172	0xbe1c8745	-0.15285976
173	0x3e065487	0.13118182
174	0xbb922133	-0.004459524
175	0x3dd7cfb6	0.105376646
176	0xb7d219b1	-2.5045914e-05
177	0xbb4403c6	-0.0029909476
178	0x3e3c9f62	0.18420175
179	0xbca36725	-0.019946644
180	0x3bd34604	0.0064475555
181	0xbe82dd9c	-0.255597
182	0xb843b5d8	-4.6660978e-05
183	0x3e1a48c8	0.15066826
184	0xbe56c48d	-0.20973416
185	0x3e58616d	0.21130915
186	0x3e5e6143	0.2171679
187	0x3eb4f299	0.35341337
188	0xbe7a5d57	-0.24449669
189	0x3d0bef09	0.03416351
190	0xbcc27f78	-0.023742422
191	0x3e1f6239	0.15564813
192	0x3db523d0	0.08844721
193	0x3e89730c	0.26845586
194	0x3db6933a	0.089148
195	0xbc90d007	-0.01767732
196	0x3e239dd2	0.15978172
197	0xbea05be1	-0.31320098
198	0xbe010262	-0.12598565
199	0x3d3c478b	0.045966666
200	0x3e32329c	0.17402118
201	0x3e0e560c	0.13900012
202	0xb8718a1d	-5.7587506e-05
203	0xbdee7021	-0.11642481
204	0xbc45c7ff	-0.012071609
205	0xbe5e09b7	-0.21683393
206	0x400073c7	2.0070665
207	0xbe052670	-0.13002944
208	0xbdafe7be	-0.08589123
209	0xbde2bc51	-0.11071075
210	0xbf43d664	-0.7649901
211	0x3cd941f4	0.026520707
212	0x3e12bbd8	0.14329469
213	0xbe0d2c1e	-0.1378636
214	0xbdb84b38	-0.08998722
215	0x3e1686db	0.14699881
216	0x3e15a5b6	0.14613995
217	0x3dd9efc7	0.10641437
218	0x3e090901	0.13382341
219	0xb6c7ea51	-5.95794e-06
220	0xbe22b403	-0.15888982
221	0x3c762c78	0.015025251
222	0xbe0050db	-0.12530844
223	0xbdfccd7c	-0.123438805
224	0x37d6d703	2.561091e-05
225	0xbc3f5394	-0.011677641
226	0x3d93dd36	0.07219927
227	0x373416cf	1.0734147e-05
228	0xbcfd6298	-0.030930802
229	0xbdd5c6b4	-0.1043829
230	0x3cf47bf5	0.029844264
231	0xbe6c3a15	-0.23069032
232	0xbed6e936	-0.419748
233	0x3c7a1d31	0.015265749
234	0x3da54c24	0.08071163
235	0x3d99baa4	0.07506302
236	0x3e324fe2	0.17413285
237	0xbe106f02	-0.14104846
238	0xbe20aba6	-0.15690479
239	0x3722923c	9.69e-06
240	0x3dd88671	0.10572518
241	0xbde32f50	-0.110930085
242	0x3e3736d8	0.17892015
243	0x3cf532fe	0.029931542
244	0x388fb0f7	6.8517336e-05
245	0x3d5db9f9	0.054132435
246	0x3e421a81	0.18955423
247	0x3d88701b	0.066620074
248	0x3e822652	0.2541986
249	0x3d370950	0.044686615
250	0x3d9013bf	0.07035016
251	0xbe19253d	-0.14955612
252	0xbe4576b5	-0.19283564
253	0xbcd14cc9	-0.02554931
254	0x3da4196d	0.08012662
255	0xbe87225f	-0.2639341

fc3.bias f4 [4]
0	0x3ef384f9	0.47562388
1	0x3ef24bcd	0.47323456
2	0x3eb2d539	0.349283
3	0x3ee3aca5	0.44467655
