models/snake50k.pth (torch, 712256 bytes, 10 tensors)

conv1.weight f4 [32, 1, 3, 3]
0	0xbc3936b1	-0.011304543
1	0x3bbfa99b	0.005849076
2	0xbed32227	-0.41236994
3	0x3d9a7d71	0.07543457
4	0x3ed8ff45	0.42382255
5	0x3ed83dda	0.4223469
6	0x3ee08747	0.43853208
7	0x3edbcca8	0.42929578
8	0x3ee3d2f9	0.44496897
9	0x3d174a32	0.036935993
10	0x3d07b693	0.0331331
11	0x3eff3eb1	0.49852517
12	0xb9babe9a	-0.00035618694
13	0xbd00134f	-0.031268414
14	0x3e2b14e6	0.16707191
15	0xbcf9ccf5	-0.030493239
16	0xbf0cc112	-0.549821
17	0x3f129c5a	0.57269824
18	0x18ecbf52	6.1197754e-24
19	0x17461efb	6.4016353e-25
20	0x18319b64	2.2955166e-24
21	0x187d22ce	3.2717055e-24
22	0x98292a15	-2.1863984e-24
23	0x17c8c535	1.2974479e-24
24	0x98eb4db7	-6.082455e-24
25	0x190e63e4	7.361401e-24
26	0x17a631df	1.0740088e-24
27	0xbd48f98a	-0.049066104
28	0x3ce92b3c	0.028462999
29	0xbd0b40a8	-0.033997208
30	0xbf282694	-0.65683866
31	0xbc3d3722	-0.011548789
32	0x3cb436ff	0.02199888
33	0x3f327d04	0.6972201
34	0x3b2d4b3d	0.002644255
35	0xbc4a6a3b	-0.012354429
36	0x3eb5a5f0	0.35478163
37	0x3ea35306	0.3189928
38	0xbe9dce6c	-0.3082155
39	0x3eaa685c	0.33282745
40	0x3e9fb54e	0.31193012
41	0x3d5bbc96	0.053646646
42	0x3eae7957	0.3407695
43	0x3e9a44fd	0.3013076
44	0x3e90add9	0.28257635
45	0xbe833a23	-0.25630292
46	0xbde7bfd0	-0.11315882
47	0xbd86bc6e	-0.06578909
48	0xbd91dc91	-0.07122148
49	0x3e0ea764	0.13931042
50	0xbdacca15	-0.084369816
51	0xbd2bf5f3	-0.041982602
52	0xbdeec47e	-0.11658572
53	0xbe18e5d6	-0.14931425
54	0xbd0abab2	-0.033869453
55	0xbf0a4e95	-0.54026157
56	0x3f0baac5	0.5455745
57	0xbcac190c	-0.021008037
58	0xbc883479	-0.016626583
59	0x3ee631e4	0.4495994
60	0x3c698f6b	0.014255385
61	0x3b515a64	0.0031944746
62	0x3c2f5fea	0.01070402
63	0x3ee20262	0.44142443
64	0x3d849dd5	0.064754166
65	0x3f225ffd	0.63427716
66	0x3defbb75	0.117056765
67	0x3c041353	0.008061248
68	0xbf06f4cd	-0.52717286
69	0x3d8c3bce	0.06847344
70	0xbbd128c6	-0.0063830344
71	0x3d185aaa	0.03719584
72	0x3d037dd2	0.032102413
73	0x3d51410e	0.05108743
74	0x3f2116f1	0.6292563
75	0x3d573965	0.05254497
76	0xbecae3f1	-0.3962703
77	0x3ed6590c	0.41864812
78	0x3db405e3	0.08790185
79	0x3eb1eb54	0.34749854
80	0x3dde60ae	0.10858284
81	0x3f2be640	0.6714821
82	0xbf242bf1	-0.6412955
83	0xbcf175d2	-0.029475126
84	0x3af019f9	0.0018318287
85	0xbcaa376f	-0.020778386
86	0x3cfa9682	0.030589346
87	0x3c71ae8e	0.01475109
88	0x3ca735c8	0.020411387
89	0x3c3431db	0.010998215
90	0xbdfb18a0	-0.12260556
91	0xbd2dc795	-0.042426664
92	0x3f0c4784	0.54796624
93	0x3d7b3404	0.061328903
94	0xbd830165	-0.0639675
95	0xbef9715d	-0.48719302
96	0xbcd765f7	-0.026293738
97	0x3d5dcb7b	0.054149132
98	0xbe421630	-0.18953776
99	0x3eb5f4c6	0.3553831
100	0xbe899cdc	-0.26877487
101	0x3cc738aa	0.024319012
102	0x3ed1cc5e	0.40976232
103	0xbd3b165b	-0.045675617
104	0x3cdc0f4c	0.026862763
105	0x3f03da38	0.5150485
106	0x3cf36fb0	0.029716343
107	0x3d186bd3	0.037212204
108	0x3f1ddbc5	0.61663467
109	0x3ef98bb0	0.48739386
110	0x3f1ce892	0.61292374
111	0x3ee8e9c5	0.45490852
112	0x3d9bcf53	0.07607903
113	0x3ee798eb	0.45233855
114	0x3f1707a9	0.58996063
115	0x3edaa6ea	0.4270547
116	0x3f18e78c	0.5972831
117	0xbea0f0ab	-0.31433615
118	0x3e98da4a	0.2985404
119	0x3ea13631	0.31486657
120	0x3eab5bf3	0.3346859
121	0x3e964e27	0.293565
122	0x3d024aef	0.031809743
123	0x3e94c5c3	0.2905713
124	0x3e86cc9f	0.26327989
125	0xbe95f42f	-0.2928786
126	0x3ec48409	0.38381985
127	0x3e46c0c9	0.19409479
128	0x3eae1d4e	0.34006733
129	0x3e641863	0.22274928
130	0xbe5d6143	-0.21619134
131	0x3eaf3dbd	0.3422679
132	0x3ebe2086	0.37134188
133	0xbeb01963	-0.3439437
134	0xbc28eab4	-0.010309864
135	0x3ed23df5	0.41062894
136	0x3ed0169a	0.40642244
137	0x3eeaa7c2	0.45831114
138	0xbd0d485e	-0.034492843
139	0x3edbb795	0.429135
140	0x3ecadb29	0.3962033
141	0xbe581c1d	-0.21104474
142	0x3ce83a7b	0.028348198
143	0x3eb45ae2	0.35225588
144	0xbb6abf14	-0.0035819458
145	0x3c83df27	0.016097618
146	0xbb80857e	-0.0039221635
147	0xba4fb9ef	-0.00079241296
148	0x3b2abf28	0.002605388
149	0xbd10da8c	-0.035364673
150	0x3ee85b1a	0.45382005
151	0x3f129d59	0.57271343
152	0xbf17abf6	-0.59246767
153	0x3f41a38b	0.7564017
154	0x3ecc387c	0.39886844
155	0xbb94fd3b	-0.004546789
156	0x3ebbd56d	0.36686268
157	0xbc031c64	-0.008002374
158	0xbd1be5cb	-0.038060945
159	0x3c48c20d	0.012253297
160	0xbd33f577	-0.043935265
161	0xbce8e572	-0.02842972
162	0xbc9bded7	-0.019027157
163	0xbc90453b	-0.017611137
164	0xbc956eb0	-0.018241256
165	0xbc93cb37	-0.018041236
166	0xbc4141cf	-0.011795475
167	0xbd681e58	-0.056669563
168	0xbf130d1a	-0.57441866
169	0xbcb785cb	-0.022402665
170	0xbd351d62	-0.044217475
171	0xbdef9135	-0.11697618
172	0xbc0b2fe0	-0.008495301
173	0xbf05e996	-0.5230955
174	0xbd0b6e05	-0.03404047
175	0xbd8e5e17	-0.0695154
176	0xbba1794d	-0.0049277903
177	0xbc677b96	-0.014128586
178	0xbc23eefe	-0.010005711
179	0x3c50bf38	0.012740903
180	0x3bc3acfd	0.0059715495
181	0x3cc023b1	0.023454519
182	0x3e99c484	0.30032742
183	0x3cbe65ba	0.023241866
184	0xbd52ae7b	-0.05143593
185	0x3f06eca6	0.52704847
186	0xbd05c690	-0.032660067
187	0x3b995b6c	0.004680088
188	0xbf14cd12	-0.5812541
189	0x3d77154b	0.06032304
190	0x3cfbcfac	0.030738674
191	0x3c365047	0.011127538
192	0x3eda9c2b	0.42697272
193	0x3c914d89	0.017737167
194	0xbcdf0702	-0.027225021
195	0x3f0856b6	0.5325731
196	0xbf06dd3d	-0.5268133
197	0xbd3cee67	-0.046125796
198	0x3e8ff431	0.2811599
199	0xbe1da7be	-0.1539602
200	0x3d56713d	0.052354086
201	0xbe7f1cdc	-0.24913353
202	0x3cdb0d7e	0.026739832
203	0x3e37c880	0.17947578
204	0x3f01dc8d	0.5072716
205	0x3e988191	0.2978635
206	0x3e3e2cfe	0.1857185
207	0xbf0de685	-0.5542987
208	0x3f0a4c24	0.5402243
209	0x3ef2aae2	0.47395998
210	0xbcd44f9e	-0.02591687
211	0xbce3b66b	-0.027796945
212	0x3d088700	0.03333187
213	0x3c7fb70e	0.0156076085
214	0x3c0c8647	0.008576936
215	0x3b8d92bd	0.004320471
216	0xbb8b3b43	-0.004249008
217	0xbcc5261b	-0.024066022
218	0xbbb11c95	-0.0054050186
219	0x3c1990c8	0.009372897
220	0x3c0f0ba4	0.008730803
221	0x3d128cb8	0.03577873
222	0xbf1218ad	-0.570689
223	0x3f121565	0.57063895
224	0x3ef5b995	0.4799315
225	0x3ea469f4	0.32112086
226	0x3e9e4f55	0.309199
227	0xbe93af76	-0.28844804
228	0x3ea8555a	0.32877618
229	0x3eb587f4	0.35455287
230	0xbc64bbc7	-0.013960785
231	0xbea1f56e	-0.3163256
232	0xbc7d9a62	-0.015478702
233	0xbea35977	-0.31904194
234	0x3f275fa6	0.6538032
235	0x3d27a947	0.04093292
236	0x3f05d7c5	0.52282363
237	0xbf1c0eba	-0.6095997
238	0xbcbc4b94	-0.022985257
239	0x3da038d1	0.07823337
240	0xba997cf8	-0.0011710217
241	0x3b1ebbc2	0.00242208
242	0xbcb5dc54	-0.022199787
243	0x3e99d1da	0.30042917
244	0xbe9aa62b	-0.302049
245	0x3eb0abb1	0.3450599
246	0x3ec01672	0.37517124
247	0x3ea3b8c4	0.31976902
248	0xbe9f77e6	-0.31146163
249	0xbeb1583b	-0.34637627
250	0x3ccc89fe	0.024968144
251	0x3ea25870	0.31708097
252	0xbec4fb2c	-0.3847288
253	0xbd504c99	-0.0508543
254	0x3ea3d2fe	0.31996912
255	0xbcf81070	-0.030281276

conv1.bias f4 [32]
0	0xbe683048	-0.22674668
1	0xbea794c3	-0.32730684
2	0x9993fe45	-1.5302142e-23
3	0xbeba8bde	-0.36434835
4	0xbe395d7f	-0.18102072
5	0xbe803fad	-0.2504858
6	0xbea2f44c	-0.3182701
7	0xbe66f75f	-0.22555302
8	0xbdd70b41	-0.105001934
9	0xbebb82ff	-0.3662338
10	0xbee31465	-0.44351497
11	0xbdda0394	-0.10645214
12	0x3e96df23	0.29467115
13	0xbe249932	-0.16074064
14	0xbe485637	-0.19564138
15	0xbe7bac62	-0.24577478
16	0xbeb84230	-0.35987997
17	0xbda3b5b8	-0.079936445
18	0xbeb974ca	-0.36221915
19	0xbed3c51b	-0.41361317
20	0xbeb98b24	-0.36238968
21	0xbea19746	-0.31560725
22	0xbd2d1ef5	-0.04226585
23	0xbe97a4cb	-0.29617915
24	0xbe9ab54b	-0.3021644
25	0xbef2aed1	-0.47399
26	0xbeb9f7c3	-0.3632184
27	0xbe40adef	-0.1881635
28	0xbe51ea38	-0.20499504
29	0xbe918127	-0.28418848
30	0xbe4f33de	-0.2023463
31	0xbdf4831d	-0.119390704

conv2.weight f4 [128, 32, 3, 3]
0	0xbd66e3b1	-0.056369487
1	0xbe33f504	-0.17573935
2	0xbdefc36a	-0.11707194
3	0xbd275f04	-0.0408621
4	0xbe1076a8	-0.14107764
5	0xbdcfaf36	-0.10140841
6	0xbe6044a7	-0.21901189
7	0xbdeb4f9f	-0.11489796
8	0x3e377666	0.17916259
9	0x3dbae1f1	0.09125126
10	0x3e274fd7	0.1633905
11	0xbdb451c6	-0.088046595
12	0xbd355caa	-0.044277824
13	0xbe1465c7	-0.1449195
14	0x3df7f9ae	0.121081695
15	0x3e846791	0.25860265
16	0xbdce9c9d	-0.10088465
17	0xbd0de270	-0.034639776
18	0x995224b7	-1.086416e-23
19	0x189cf419	4.057153e-24
20	0x98f83c3b	-6.4167315e-24
21	0x190c4c1f	7.253203e-24
22	0x186686c8	2.979485e-24
23	0x97cbcb2c	-1.3169855e-24
24	0x167fbf72	2.0659145e-25
25	0x980c5288	-1.8136244e-24
26	0x98a53abe	-4.2710815e-24
27	0xbe993d8e	-0.29929775
28	0xbeb40a6d	-0.35164204
29	0x3ce3000f	0.027709989
30	0xbe4ee3b5	-0.20204051
31	0xbe1bce20	-0.15215349
32	0xbc4ed14c	-0.012623142
33	0xbf0080ee	-0.5019673
34	0xbed9b412	-0.42520195
35	0x3e757f86	0.23974428
36	0xbcd4ec3b	-0.02599155
37	0x3d8e26e9	0.06941015
38	0x3d87bb0c	0.06627473
39	0xbcf7053a	-0.03015386
40	0xbd3d8a9c	-0.046274766
41	0x3e22179b	0.15829317
42	0xbd9fde74	-0.078061014
43	0x3bb6ea46	0.005582127
44	0x3d1cc7f5	0.03827663
45	0xbdf65c1a	-0.12029286
46	0xbdc859d5	-0.09782759
47	0xbe2c00d4	-0.16797191
48	0xbdd4b4a5	-0.10386018
49	0x3d41f55b	0.04735313
50	0xbcff9420	-0.031198561
51	0x3d6eb4df	0.05827796
52	0x3d92531f	0.0714476
53	0xbe8de7c1	-0.27715877
54	0x3d9b812f	0.07592999
55	0xbd4d46d0	-0.05011636
56	0x3a12cdd3	0.0005600128
57	0xbd829bb1	-0.06377352
58	0xbdd48d7e	-0.1037855
59	0x3d007c3f	0.03136849
60	0xbd5499dd	-0.051904548
61	0xbd69f70d	-0.05712037
62	0xbb3b4baa	-0.0028579035
63	0x3dce73e5	0.10080699
64	0xbd24cdc1	-0.040235285
65	0xbcb1e5fa	-0.021716107
66	0x3c951ba0	0.01820165
67	0xbc942ab6	-0.018086772
68	0x3c72c607	0.014817721
69	0xbcaf9d84	-0.021437414
70	0xbd9562ee	-0.0729426
71	0xbd39257e	-0.04520177
72	0xbde8e04a	-0.11370905
73	0xbd6af223	-0.057359826
74	0xbcd2b839	-0.02572261
75	0xbe4872d1	-0.19575049
76	0x3c36b8ac	0.011152428
77	0x3dd30657	0.103039436
78	0x3cd31e4a	0.025771279
79	0x3d6e4efd	0.058180798
80	0xbe00e55d	-0.12587495
81	0x3d820083	0.06347754
82	0x3de4213c	0.111391515
83	0xbd8d4fd8	-0.068999946
84	0x3e5be522	0.21474126
85	0x3e19159d	0.14949651
86	0xbd8eb747	-0.06968551
87	0xbcc20326	-0.023683142
88	0xbdf30486	-0.11866097
89	0xbd38009b	-0.044922452
90	0xbd292bc1	-0.041301493
91	0xbcd3be2e	-0.02584752
92	0xbd86aec4	-0.06576303
93	0xbc4f4d61	-0.012652726
94	0xbda08df6	-0.07839577
95	0xbdac8ebe	-0.084256634
96	0xbd171c38	-0.036892146
97	0x3e7bee9f	0.24602745
98	0xbded28b1	-0.11580027
99	0x3ded5b1e	0.11589645
100	0x3d7821c9	0.060579095
101	0xbd1b2c20	-0.037883878
102	0x3e0e4f41	0.1389742
103	0xbd26cf72	-0.04072518
104	0xbd99c957	-0.07509106
105	0xbf1340e4	-0.5752089
106	0xbdb108c8	-0.08644253
107	0xbd055d31	-0.032559577
108	0x3dcb17a7	0.09916621
109	0x3e210eff	0.15728377
110	0xbcfb2b12	-0.030660186
111	0xbdbe45de	-0.0929067
112	0xbdcf8c04	-0.10134128
113	0x3ce13001	0.02748871
114	0xbec0dc8a	-0.37668258
115	0xbef37b08	-0.47554803
116	0x3ddf3df2	0.10900487
117	0xbd23b39c	-0.03996621
118	0xbdb9190d	-0.09037981
119	0x3c762bbb	0.015025075
120	0xbdbb2574	-0.09138003
121	0xbd3addfc	-0.045621857
122	0xbd2aa8fd	-0.041665066
123	0xbd1e09ad	-0.038583446
124	0xbd20c732	-0.039252467
125	0x3ddc99d4	0.10771528
126	0x3e8b872e	0.2725157
127	0xbe902702	-0.2815476
128	0xbd764cd1	-0.06013185
129	0xbd07fce5	-0.033200163
130	0xbda37c04	-0.079826385
131	0xbde18649	-0.11011941
132	0xbf0ce73f	-0.55040354
133	0xbdcf88e0	-0.10133529
134	0xbe372680	-0.1788578
135	0x3ebdd644	0.37077534
136	0xbd82ceb2	-0.0638708
137	0x3d866192	0.06561579
138	0xbe900bb2	-0.28133923
139	0x3e9ed748	0.31023622
140	0x3e148c13	0.14506559
141	0x3da67440	0.08127642
142	0x3e0a0863	0.13479762
143	0xbdd0510b	-0.10171708
144	0xbd8ccd4d	-0.068750955
145	0xbc732ac7	-0.014841742
146	0xbd34e7f2	-0.044166513
147	0xbd84e314	-0.06488624
148	0x3b8a71ac	0.0042249765
149	0xbb2a0f40	-0.002594903
150	0xbe83404b	-0.2563499
151	0xbe55c5df	-0.20876263
152	0x3cd9840d	0.026552225
153	0x3cd05122	0.025429312
154	0x3d1e5223	0.03865255
155	0xbd3ec85b	-0.046577793
156	0xbe13ae9d	-0.14422078
157	0x3e39bc0a	0.18138137
158	0xbd829650	-0.06376326
159	0xbd415a2c	-0.047205135
160	0xbe0bcbca	-0.13651958
161	0x3c072695	0.008248945
162	0xbde3abd9	-0.11116762
163	0xbdc5748f	-0.096413724
164	0xbdd0c33b	-0.10193487
165	0xbee8fba5	-0.4550449
166	0x3dd2e37a	0.10297294
167	0x3da253e6	0.079261586
168	0x3f183c12	0.5946666
169	0x3e3eea16	0.18643984
170	0xbeaa56ed	-0.33269444
171	0x3ddd7ac5	0.10814432
172	0xbdf53670	-0.11973274
173	0xbe158563	-0.14601664
174	0x3dd8920a	0.1057473
175	0x3d01ac9e	0.03165876
176	0xbba4a2b1	-0.005024277
177	0x3e3f24a0	0.18666315
178	0xbdd6e7e6	-0.1049345
179	0x3cd63183	0.026146656
180	0xbad0847b	-0.0015908623
181	0xbd521b5e	-0.05129563
182	0xbe790609	-0.24318708
183	0x3ddc4b0c	0.107565016
184	0x3d3c6bd2	0.046001263
185	0xbc0526ca	-0.008126924
186	0x38c277dd	9.272967e-05
187	0xbe9267ce	-0.28594822
188	0xbe4e0881	-0.20120431
189	0x3e0bebc3	0.13664155
190	0xbd6f5cd3	-0.058438133
191	0xbdcd7bc6	-0.100333735
192	0x3dfe32cd	0.12412033
193	0xbde77395	-0.113013424
194	0xbe420c61	-0.18950035
195	0xbf824579	-1.0177451
196	0xbe14804a	-0.14502063
197	0x3cd75c85	0.026289234
198	0xbd5efcfe	-0.05444049
199	0xbbd1ec5d	-0.0064063505
200	0x3db6a125	0.08917455
201	0x3d03e5ff	0.032201763
202	0xbe03e754	-0.12881213
203	0x3c4e7de4	0.012603257
204	0xbd0cd7a8	-0.034385353
205	0xbe0ef727	-0.13961469
206	0x3e00f86b	0.12594764
207	0xbd68ed69	-0.056867037
208	0x3e75fad3	0.24021463
209	0x3d53fe94	0.051756456
210	0x3e163a44	0.14670664
211	0x3de8a491	0.113595136
212	0xbc9fc72a	-0.019504149
213	0x3d05c1c4	0.032655492
214	0x3cfb441a	0.030672122
215	0xbdcc363d	-0.09971283
216	0x3d76518d	0.060136367
217	0xbcee46ef	-0.029086558
218	0xbdc17bb3	-0.09447422
219	0xbe9307be	-0.28716844
220	0x3d898e53	0.06716599
221	0xbdb07055	-0.08615176
222	0xbeacc888	-0.33746743
223	0x3efc72d0	0.49306345
224	0xbe8b62f6	-0.2722394
225	0x3d6f2c0e	0.058391623
226	0xbe1eca6d	-0.15506907
227	0xbd0f92a5	-0.03505196
228	0xbce7013b	-0.028198829
229	0x3c5bbd4d	0.013411832
230	0xbd9620a8	-0.073304474
231	0x3c8241a6	0.015900444
232	0xbe04e414	-0.1297763
233	0xbd148c85	-0.036266822
234	0x3c85e1c1	0.016343
235	0xbd24e6cf	-0.04025918
236	0xbd4530eb	-0.048142355
237	0xbe1879a9	-0.1489016
238	0x3d38c825	0.045112748
239	0x3dbfa523	0.09357669
240	0x3dadccb1	0.084863074
241	0x3def889e	0.116959795
242	0x3d98041d	0.074226595
243	0x3e3238da	0.174045
244	0xbd8c60ad	-0.06854377
245	0x3d821f38	0.06353611
246	0xbd5fad1f	-0.05460846
247	0x3e284fb1	0.1643665
248	0x3db32f92	0.08749308
249	0x3e3bb7bd	0.1833181
250	0x3e0347ef	0.12820409
251	0xbe24fd7a	-0.16112319
252	0xbe3de92b	-0.18545978
253	0xbe3b2243	-0.18274789
254	0x3db6fb5b	0.08934661
255	0xbc0ef7c8	-0.008726068

conv2.bias f4 [128]
0	0xbe005648	-0.12532914
1	0x86e6d013	-8.682212e-35
2	0x86b66aa8	-6.861751e-35
3	0xbe997b08	-0.29976678
4	0x3e92b413	0.2865301
5	0x888a0f1b	-8.309124e-34
6	0x3de3a9cb	0.1111637
7	0x3dd53747	0.10410934
8	0x864bd680	-3.8337646e-35
9	0xbe24ac4b	-0.1608135
10	0xbe946963	-0.28986654
11	0x8c290aac	-1.3022498e-31
12	0x3e31d327	0.17365704
13	0x87106bfb	-1.0865089e-34
14	0x87213dde	-1.2130475e-34
15	0x3d005304	0.03132917
16	0xbecce8e7	-0.4002144
17	0x87a90eab	-2.5436915e-34
18	0x86b0d967	-6.6523286e-35
19	0x87973341	-2.275008e-34
20	0xbe7de042	-0.24792579
21	0x8ce04cfe	-3.4559003e-31
22	0x886c9f93	-7.1206245e-34
23	0x861abd1b	-2.9103114e-35
24	0x898e88e6	-3.4313995e-33
25	0x8ea72bc9	-4.1210842e-30
26	0x3ebb5b7b	0.36593232
27	0x871da639	-1.1860216e-34
28	0xbeaa9bcd	-0.33321992
29	0x3e4fe2bb	0.20301335
30	0x87e8f01a	-3.50486e-34
31	0xbe83e838	-0.25763106
32	0x87c1ad3f	-2.9141237e-34
33	0x86ce615c	-7.7631644e-35
34	0x8694c55e	-5.596142e-35
35	0xbe10c851	-0.14138915
36	0x3cd05ed5	0.025435844
37	0x8f3ca725	-9.3013065e-30
38	0xbdfd2e03	-0.12362292
39	0xbbbb9f4d	-0.0057257772
40	0x8620b2b6	-3.0223951e-35
41	0xbe40f288	-0.18842518
42	0x8746c566	-1.4953875e-34
43	0x87a819a4	-2.52929e-34
44	0x8800f04c	-3.8801067e-34
45	0xbe53d97c	-0.20688432
46	0xbce2ef09	-0.027701871
47	0x87319e6e	-1.3362558e-34
48	0x870dd7c0	-1.0671064e-34
49	0x85dcabdc	-2.0751832e-35
50	0x85bf32b6	-1.7980182e-35
51	0x861b20e1	-2.9176416e-35
52	0x3e589e65	0.21154173
53	0x88bcd225	-1.1364243e-33
54	0x8c4e10e0	-1.5874741e-31
55	0xbdccb394	-0.09995189
56	0x89612832	-2.710229e-33
57	0x3db9150f	0.0903722
58	0x8921047a	-1.9381775e-33
59	0x899f968d	-3.8419435e-33
60	0xbbadb2f0	-0.005300872
61	0x864ad924	-3.8151507e-35
62	0x869227fb	-5.497784e-35
63	0x8b1bf104	-3.0033234e-32
64	0x3cc6f087	0.024284614
65	0x86fe4750	-9.5648965e-35
66	0x87a666ba	-2.5037281e-34
67	0x8caea9d3	-2.6911154e-31
68	0xbe22a47c	-0.15883058
69	0x87413787	-1.4536024e-34
70	0x9a04ebb4	-2.748736e-23
71	0xbe90e9fe	-0.28303522
72	0x8afe1e8d	-2.4470802e-32
73	0x8643b077	-3.680507e-35
74	0x3e7daa68	0.24772036
75	0x86e9277c	-8.7702876e-35
76	0x88a93aae	-1.0185113e-33
77	0x87fbe5af	-3.7901278e-34
78	0x8728fcbf	-1.2713191e-34
79	0x3e03934b	0.12849157
80	0x86f81e05	-9.333134e-35
81	0x8a40ae93	-9.2772975e-33
82	0xbe55314a	-0.20819584
83	0x3dfaa3eb	0.12238296
84	0xbe7630d9	-0.24042071
85	0x3dd40a4b	0.10353526
86	0x89551482	-2.5648585e-33
87	0xbe6ad6fc	-0.22933573
88	0x870c134a	-1.0538098e-34
89	0x86e00d06	-8.427857e-35
90	0x3e10a345	0.14124782
91	0xbeb0f342	-0.3456059
92	0x99d3868b	-2.187123e-23
93	0xbe351caf	-0.17686723
94	0x8be499f6	-8.805406e-32
95	0xbebe704b	-0.37195048
96	0x3ea021b4	0.31275713
97	0xbd18dc90	-0.03731972
98	0x8c980c1d	-2.3426599e-31
99	0x86606462	-4.2203467e-35
100	0x3da4c80f	0.08045971
101	0x3e1e79cc	0.1547615
102	0xbda17aff	-0.07884788
103	0xbe684368	-0.22681963
104	0x874b48e5	-1.5293444e-34
105	0x879f9f2a	-2.401721e-34
106	0x87e29c38	-3.4096518e-34
107	0x86cc7bd6	-7.691823e-35
108	0x877f79ef	-1.9219901e-34
109	0x8876664b	-7.4148177e-34
110	0xbe8fe17f	-0.28101727
111	0x90f42a58	-9.630627e-29
112	0xbe182f68	-0.14861834
113	0xbd93574c	-0.07194385
114	0xbd0dd8ab	-0.03463046
115	0x8867aabf	-6.9714745e-34
116	0x3dbbb0dc	0.091645926
117	0x879ef34e	-2.39162e-34
118	0xbea21067	-0.3165314
119	0xbe5a9241	-0.21344854
120	0x86133805	-2.7688784e-35
121	0xbe6ec09c	-0.23315662
122	0x8beacc72	-9.0441137e-32
123	0x869d784b	-5.923359e-35
124	0x8de349c6	-1.4007715e-30
125	0xbe492785	-0.19643982
126	0x8871b7ec	-7.27395e-34
127	0x89b4d4fb	-4.353371e-33

fc1.weight f4 [64, 2048]
0	0xbc232da5	-0.009959613
1	0xbde5f4e3	-0.11228349
2	0x3e16806b	0.14697425
3	0xbdcb63f9	-0.09931178
4	0x3d88037f	0.06641292
5	0xbdade12b	-0.08490213
6	0xbc99bd63	-0.018767064
7	0xbe3c8ee3	-0.18413882
8	0xbe306b02	-0.1722832
9	0x3c8183cd	0.015809918
10	0x3c4130f2	0.011791455
11	0xbccd9e99	-0.02510004
12	0x3e5cd078	0.215639
13	0xbd77cd5a	-0.060498573
14	0xbdbb99db	-0.09160205
15	0x3e294316	0.16529498
16	0x860cb5e4	-2.6464706e-35
17	0x868e4e03	-5.352909e-35
18	0x8688adae	-5.1412714e-35
19	0x85068c05	-6.326367e-36
20	0x8650b416	-3.9252758e-35
21	0x86bc8004	-7.090584e-35
22	0x860588c6	-2.5115005e-35
23	0x839a7b0e	-9.0795585e-37
24	0x868fdc31	-5.4114164e-35
25	0x86c7b252	-7.51175e-35
26	0x05a917a5	1.5901369e-35
27	0x06317182	3.3373392e-35
28	0x85de2db6	-2.0893571e-35
29	0x8645b9d9	-3.718812e-35
30	0x06b8e077	6.954293e-35
31	0x84b3f00b	-4.2303142e-36
32	0x86af60a2	-6.596967e-35
33	0x05a74d81	1.5733075e-35
34	0x857504a7	-1.1520699e-35
35	0x053e2ea9	8.942327e-36
36	0x84812fbc	-3.037159e-36
37	0x86097b64	-2.585749e-35
38	0x05d7ea1e	2.0304504e-35
39	0x05556574	1.0033846e-35
40	0x840be05d	-1.6442394e-36
41	0x0675ee49	4.6254443e-35
42	0x85006492	-6.037003e-36
43	0x0696c5d0	5.671439e-35
44	0x85a34ac9	-1.5355918e-35
45	0x061d0700	2.953356e-35
46	0x85af93e5	-1.6511249e-35
47	0x8505a7a3	-6.28442e-36
48	0xbda5c546	-0.080942675
49	0xbe030eb5	-0.12798579
50	0x3d1c80f6	0.038208924
51	0x3d64ed64	0.055890456
52	0x3d89583b	0.06706282
53	0x3e854e81	0.26036456
54	0xbe5589dc	-0.2085337
55	0x3dfb9cf7	0.12285798
56	0xbc628971	-0.013826714
57	0x3aadc4de	0.0013257524
58	0xbd2c4269	-0.04205552
59	0x3e42ac26	0.19010982
60	0x3d8b7f7c	0.06811425
61	0x3e69e4b1	0.22841145
62	0x3dd42599	0.10358734
63	0x3c216943	0.0098517565
64	0x3e1a09e8	0.15042841
65	0x3ece559c	0.4029969
66	0x3ebea8d0	0.3723817
67	0x3f04117b	0.51589173
68	0x3e255412	0.16145352
69	0x3e5b2d94	0.21404105
70	0x3e9661a5	0.29371372
71	0x3ea235dc	0.31681716
72	0x3e5a58f1	0.21322991
73	0x3d99ae4f	0.0750395
74	0x3de2f869	0.11082537
75	0x3eef2e66	0.46715087
76	0x3e6b2b6e	0.22965786
77	0x3e6930b8	0.22772491
78	0xbcfeb565	-0.031092355
79	0x3ecf451d	0.40482417
80	0x88b47939	-1.0861855e-33
81	0x88a5ae0f	-9.971497e-34
82	0x8738c355	-1.3900024e-34
83	0x87e728d4	-3.4781014e-34
84	0x872b147b	-1.2870629e-34
85	0x8893c04f	-8.892452e-34
86	0x8519dbf9	-7.234428e-36
87	0x07ccd8fe	3.0822045e-34
88	0x875d2fa8	-1.6640197e-34
89	0x888152b9	-7.783353e-34
90	0x86bfb452	-7.211117e-35
91	0x0893d6f0	8.897772e-34
92	0x8799e58e	-2.3155801e-34
93	0x882e2305	-5.2402386e-34
94	0x87c0ab21	-2.898953e-34
95	0x05897435	1.2926106e-35
96	0xbe1dcc2d	-0.15409918
97	0xbe541b35	-0.20713504
98	0xbe24e7e1	-0.1610408
99	0xbe2e000e	-0.16992208
100	0xbd918c7c	-0.071068734
101	0x3bf4ebf1	0.0074744155
102	0xbe04a88e	-0.12954924
103	0xbcaa86d1	-0.020816239
104	0xbdf70c54	-0.12062898
105	0xbe0a2166	-0.13489303
106	0xbc988af2	-0.018620942
107	0xbe0e83dc	-0.13917488
108	0xbd572af2	-0.05253119
109	0xbe196f5d	-0.14983888
110	0xbd177883	-0.036980163
111	0xbc2d56ac	-0.010579746
112	0xbde9baea	-0.11412604
113	0x3dc31f5a	0.09527464
114	0xbe88531b	-0.26625904
115	0xbe08f799	-0.13375701
116	0xbd9b1a9f	-0.07573437
117	0x3cb52349	0.022111552
118	0xbe5d0115	-0.21582444
119	0xbd78a43d	-0.060703505
120	0x3d9e1878	0.07719511
121	0xbe1abdd0	-0.1511147
122	0xbdc6e8c0	-0.09712362
123	0x3ce7379a	0.028224755
124	0xbdba631e	-0.09100936
125	0xbe225cbc	-0.15855688
126	0xbdc8205a	-0.097717956
127	0xbe241c29	-0.16026367
128	0x0496b636	3.5432165e-36
129	0x8499692f	-3.6066723e-36
130	0x05ad1b98	1.6278978e-35
131	0x0441318c	2.2709792e-36
132	0x85372435	-8.611269e-36
133	0x04dfc195	5.2604825e-36
134	0x04d06cc1	4.900044e-36
135	0x85abeec6	-1.6168474e-35
136	0x0580a236	1.2096649e-35
137	0x02949033	2.1829412e-37
138	0x8531458d	-8.3352745e-36
139	0x84f836b0	-5.8354742e-36
140	0x05a5d4da	1.5594715e-35
141	0x8558c979	-1.0193276e-35
142	0x05d2550d	1.9779548e-35
143	0x0365ead5	6.7566626e-37
144	0xbe1a23b1	-0.15052678
145	0xbc3efd99	-0.011657142
146	0x3cc41dda	0.023940016
147	0x3e09d1f3	0.13458996
148	0x3e76c792	0.24099568
149	0x3c9fb961	0.019497575
150	0x3deecc0e	0.11660014
151	0x3e2c02ff	0.16798018
152	0x3e4a0cab	0.19731395
153	0xbe3ba314	-0.18323928
154	0x3e4873c4	0.19575411
155	0x3cdb4e76	0.026770812
156	0x3da96644	0.08271459
157	0xbe16f7c1	-0.14742948
158	0x3cd1ef1a	0.025626708
159	0xbdf154d8	-0.11783761
160	0xbe0cb6c1	-0.1374159
161	0x3d80ec45	0.06295065
162	0xbd715bdc	-0.058925495
163	0x3d4fdef5	0.050749738
164	0xbde37d96	-0.11107938
165	0x3ce0ae68	0.027426913
166	0xbd7fc996	-0.062448107
167	0x3bf833ff	0.007574558
168	0x3de88008	0.11352545
169	0x3cb4fd5c	0.022093467
170	0x3bbf5cc8	0.005839918
171	0x3e1f438d	0.15553112
172	0x3e2a1e34	0.16613084
173	0x3dca8496	0.0988857
174	0xbd9b8a8d	-0.07594786
175	0x3bcd4b80	0.006265104
176	0x8b9acf7e	-5.963084e-32
177	0x0a8fb217	1.3837389e-32
178	0x8c0f5767	-1.1042621e-31
179	0x8c05e7d1	-1.0315707e-31
180	0x8c7be8c9	-1.9406388e-31
181	0x8c695264	-1.7974461e-31
182	0x8c2a0c6b	-1.310006e-31
183	0x8b815d95	-4.98298e-32
184	0x8c2f72a1	-1.3516004e-31
185	0x8c924af0	-2.2539963e-31
186	0x8beb121d	-9.054596e-32
187	0x8b4cb244	-3.9423083e-32
188	0x8c84c972	-2.045906e-31
189	0x8c67e20c	-1.7863616e-31
190	0x8c3645f8	-1.4041825e-31
191	0x8bc127e0	-7.4400893e-32
192	0x39dbd1a4	0.0004192713
193	0xbc1bb53f	-0.009503662
194	0xbd35f2b9	-0.04442093
195	0x3d3a85f6	0.04553791
196	0xbdf8d21e	-0.12149452
197	0xbe433b5d	-0.19065614
198	0xbe3f3b23	-0.18674903
199	0xbe2ef841	-0.17086889
200	0xbebb1d59	-0.36545828
201	0xbe8e74ec	-0.2782358
202	0xbd07f621	-0.03319371
203	0xbe31d201	-0.17365266
204	0xbed8ea27	-0.42366144
205	0xbe6b6bc5	-0.2299033
206	0xbe35c7ff	-0.17752074
207	0xbe945b77	-0.28976032
208	0x868e434e	-5.351336e-35
209	0x86d65a88	-8.0630877e-35
210	0x86c82473	-7.5285196e-35
211	0x86c8a6d3	-7.5476765e-35
212	0x866c4138	-4.4434582e-35
213	0x85e63bf0	-2.1651114e-35
214	0x86bc28c9	-7.077767e-35
215	0x869d2ecc	-5.91256e-35
216	0x870c95aa	-1.0576412e-34
217	0x868b9fce	-5.25208e-35
218	0x865d9467	-4.167451e-35
219	0x86d3bc90	-7.9646446e-35
220	0x872062a9	-1.2066056e-34
221	0x8711e4de	-1.0975846e-34
222	0x872a99b5	-1.2834549e-34
223	0x87182c20	-1.1448176e-34
224	0x851bb92d	-7.3220764e-36
225	0x851246c3	-6.877884e-36
226	0x8516ef81	-7.096956e-36
227	0x84e27a78	-5.3244814e-36
228	0x83023082	-3.825925e-37
229	0x84fff91f	-6.0178993e-36
230	0x8545bb1a	-9.2972606e-36
231	0x0447f429	2.350445e-36
232	0x05303b15	8.286332e-36
233	0x8418653c	-1.7913999e-36
234	0x04919f50	3.423564e-36
235	0x046e186b	2.7987978e-36
236	0x85523a42	-9.884853e-36
237	0x0557fa97	1.01552775e-35
238	0x850450b2	-6.2214316e-36
239	0x033d15d1	5.556715e-37
240	0x3ccb7e40	0.024840474
241	0xbd6c4a49	-0.05768803
242	0x3e31245f	0.1729903
243	0x3d139355	0.03602918
244	0xbda7d6f2	-0.081952944
245	0x3bded5d1	0.0068003912
246	0xbd1f863d	-0.03894638
247	0x3d4f9300	0.0506773
248	0xbdf729d6	-0.120685264
249	0x3c9b9c4b	0.018995425
250	0x3e418f26	0.18902263
251	0xbd3e909e	-0.046524636
252	0x3d45555f	0.04817712
253	0x3e8532dd	0.26015368
254	0xbd33bf67	-0.043883707
255	0xbd8e65a9	-0.06952984

fc1.bias f4 [64]
0	0xbe3100f9	-0.17285527
1	0xbef31e89	-0.47484234
2	0x8962ec76	-2.7314944e-33
3	0xbc4d3170	-0.012523994
4	0x8ecec3ec	-5.0971587e-30
5	0xbe13cea3	-0.14434294
6	0x8755027b	-1.6025068e-34
7	0x3e30c203	0.1726151
8	0xbdab4e8d	-0.08364592
9	0xbc3ed458	-0.011647306
10	0x3e6e86a2	0.23293546
11	0x8a421bb1	-9.3459684e-33
12	0xbddb21cb	-0.10699805
13	0xbcd9a4de	-0.026567873
14	0x3e15b988	0.14621556
15	0xbdcec414	-0.10095993
16	0x8d024ba3	-4.0150387e-31
17	0xbdf001bb	-0.1171908
18	0xbd9e41ea	-0.07727416
19	0xbd9788c6	-0.07399134
20	0xbe0a3c5b	-0.13499586
21	0x3e3d55e9	0.18489803
22	0xbe58c891	-0.2117026
23	0xbe8ec5cc	-0.27885282
24	0xbdf11493	-0.11771502
25	0xbe27b1f9	-0.16376485
26	0xbe823e33	-0.2543808
27	0xbec18714	-0.3779837
28	0xbe33f702	-0.17574695
29	0xbcb6595a	-0.022259403
30	0x922e5972	-5.501497e-28
31	0x8b19097b	-2.947386e-32
32	0x3ddd2c4e	0.10799466
33	0xbe7a800a	-0.24462906
34	0x91cc3a42	-3.222143e-28
35	0x8706bd3a	-1.0136648e-34
36	0xbe1350ea	-0.14386335
37	0xbe3c7918	-0.18405569
38	0xbeeb08c8	-0.45905137
39	0x3d877ace	0.0661522
40	0xbe02bdf2	-0.12767771
41	0xbe554599	-0.2082733
42	0x8d53bc67	-6.5246176e-31
43	0xbda8e5a0	-0.082469225
44	0x3d0c8ac7	0.034312036
45	0x85ae569d	-1.6394698e-35
46	0x8bab0151	-6.5868785e-32
47	0xbd4f45ac	-0.050603554
48	0x8f033070	-6.4681274e-30
49	0x88a926bb	-1.0180423e-33
50	0xbe5d0418	-0.21583593
51	0xbe2bd0cb	-0.16778867
52	0xbe98556e	-0.29752678
53	0xbdeb0873	-0.11476221
54	0xbe62f217	-0.22162662
55	0x89810bf6	-3.106687e-33
56	0xbf0ac9a0	-0.54213905
57	0xbe292801	-0.16519167
58	0x3cdfbaad	0.027310694
59	0x3e7c9a89	0.24668325
60	0x8db83a29	-1.1353877e-30
61	0xbe4ef9ad	-0.20212431
62	0xbe08e07c	-0.13366884
63	0xbd8a5e1a	-0.0675623

fc2.weight f4 [128, 64]
0	0x3b2b3a29	0.0026127195
1	0x3dcd8a86	0.10036187
2	0x08a1428b	9.705479e-34
3	0xbd51fb2c	-0.051264927
4	0x8d8fe599	-8.868329e-31
5	0xbd8517e9	-0.06498701
6	0x0510860a	6.7954665e-36
7	0xbe0e5b3d	-0.13901992
8	0xbe4e6489	-0.20155539
9	0x3ec47f0e	0.38378185
10	0xbd97ea06	-0.07417683
11	0x063a42fe	3.503193e-35
12	0xbe8f9b44	-0.28048146
13	0xbd7da8e9	-0.061928663
14	0x3d205a47	0.039148595
15	0xbd8cac30	-0.0686878
16	0x8847d982	-6.0140063e-34
17	0x3c5ab296	0.013348242
18	0xbddb472e	-0.10706936
19	0xbe493e82	-0.19652751
20	0xbd7e8a40	-0.062143564
21	0x3de335b4	0.110942274
22	0x3e8447e4	0.25836098
23	0xbe0da326	-0.13831767
24	0xbde9e541	-0.1142068
25	0xbe225d16	-0.15855822
26	0xbf0e2483	-0.5552446
27	0x3e2f8290	0.1713965
28	0xbe8992ca	-0.26869804
29	0xbd51a593	-0.051183295
30	0x8ce5d203	-3.5409433e-31
31	0x8565a915	-1.0798584e-35
32	0x3ecc9c8c	0.39963186
33	0x3d6c935e	0.057757728
34	0x0cb19caa	2.7365457e-31
35	0x860dac9b	-2.6645963e-35
36	0xbdf15914	-0.117845684
37	0x3cb892e1	0.022530975
38	0x3cbda9bb	0.023152223
39	0xbebd9c42	-0.37033278
40	0x3e49fceb	0.19725387
41	0xbe0fd6be	-0.14046761
42	0x898f7bf8	-3.4542577e-33
43	0xbe12f2ad	-0.14350386
44	0x3e277c8a	0.16356102
45	0x018134ac	4.7462696e-38
46	0x0683b4fa	4.9542644e-35
47	0x3e479d75	0.19493659
48	0x8d433afc	-6.0160014e-31
49	0x06764cbf	4.6323842e-35
50	0xbec3af5b	-0.38219723
51	0x3e035e83	0.12829022
52	0x3d0d42b2	0.034487434
53	0xbec0e7b4	-0.37676775
54	0xbed5fb73	-0.41793403
55	0x85ad6bc0	-1.6308423e-35
56	0xbdbd7595	-0.092509426
57	0xbdf08ed6	-0.11745994
58	0xbe8e8e22	-0.27842814
59	0xbd1de675	-0.03854986
60	0x8942b0b0	-2.3434979e-33
61	0x3b89c9c6	0.0042049615
62	0xbd42b0b4	-0.0475318
63	0xbe210993	-0.15726309
64	0x9bda998d	-3.6164305e-22
65	0x9c31f8fd	-5.8886197e-22
66	0x062b9127	3.2268167e-35
67	0x9b5b8b98	-1.816036e-22
68	0x068a91db	5.2124146e-35
69	0x9ba01862	-2.6485537e-22
70	0x0571804b	1.1355329e-35
71	0x9b86cca5	-2.230069e-22
72	0x9b03c4da	-1.0899672e-22
73	0x1b8510e1	2.2013912e-22
74	0x9b4e6420	-1.7072273e-22
75	0x06339763	3.377738e-35
76	0x9be11069	-3.7233732e-22
77	0x9b338d86	-1.4852262e-22
78	0x9bf0a3fb	-3.981064e-22
79	0x9bc0dcd0	-3.1906432e-22
80	0x018e0f45	5.218447e-38
81	0x9c107b82	-4.7805233e-22
82	0x9b774fc1	-2.0457131e-22
83	0x9bfb6836	-4.1591811e-22
84	0x9c1f9145	-5.2796443e-22
85	0x9b7f8722	-2.113677e-22
86	0x1b87d54c	2.2471716e-22
87	0x9bec9bb3	-3.9143543e-22
88	0x9bf26923	-4.0103485e-22
89	0x9b10ff27	-1.1993845e-22
90	0x9c59c917	-7.205918e-22
91	0x9bdee0ca	-3.6872086e-22
92	0x9bb21b17	-2.9465136e-22
93	0x9bc5d1ff	-3.2726623e-22
94	0x056950cc	1.09704474e-35
95	0x85a664c0	-1.5647575e-35
96	0x9b6a2c9c	-1.937044e-22
97	0x9b2e7548	-1.4430838e-22
98	0x05d3eefb	1.9930132e-35
99	0x05f65bfa	2.3167516e-35
100	0x9c34ddd2	-5.98437e-22
101	0x9b0f2468	-1.1840446e-22
102	0x9b94b8f0	-2.460406e-22
103	0x9b778c6d	-2.0476735e-22
104	0x1afe97bf	1.05297097e-22
105	0x9c33a62e	-5.9440914e-22
106	0x056f1ebf	1.1243373e-35
107	0x9b7f7506	-2.1130918e-22
108	0x99587324	-1.1190191e-23
109	0x059ccd62	1.4745615e-35
110	0x04c07509	4.5246463e-36
111	0x9b9b1692	-2.5657185e-22
112	0x8646b941	-3.7375764e-35
113	0x05514bb0	9.8410344e-36
114	0x9b9f88fd	-2.639287e-22
115	0x9b8acc15	-2.296207e-22
116	0x197a2679	1.29324666e-23
117	0x9ab90a12	-7.6530476e-23
118	0x9bc035cf	-3.1798509e-22
119	0x847ec59f	-2.99483e-36
120	0x9be3ad87	-3.766614e-22
121	0x9bb2388b	-2.948417e-22
122	0x9b86014c	-2.2169279e-22
123	0x9a9771a6	-6.2635745e-23
124	0x86991ae4	-5.7591716e-35
125	0x1b69568a	1.930127e-22
126	0x1b5a3393	1.8049202e-22
127	0x9ba01666	-2.6484254e-22
128	0x3d97d843	0.074142955
129	0x3d2e9350	0.042620957
130	0x867bb55e	-4.73411e-35
131	0x3d357174	0.04429765
132	0x8e05b55c	-1.6480837e-30
133	0x3d88863d	0.06666229
134	0x066a398e	4.4052793e-35
135	0x3e2b62b0	0.16736865
136	0x3dcfa8db	0.101396285
137	0xbc82c991	-0.015965255
138	0xbe0c84dc	-0.13722557
139	0x062b06f2	3.2166628e-35
140	0x3e9e3722	0.30901438
141	0xbd053977	-0.032525506
142	0x3e13b247	0.14423476
143	0x3de7a4cd	0.1131073
144	0x0615e1b5	2.818961e-35
145	0xbd52f5ff	-0.05150413
146	0x3da0652c	0.07831797
147	0x3e7e9f18	0.24865377
148	0xbe11b9cc	-0.14231032
149	0xbb411285	-0.0029460501
150	0xbdaa860f	-0.08326351
151	0xbcd97cf6	-0.026548844
152	0xbdb098ea	-0.08622916
153	0x3debb0fc	0.115083665
154	0xbe37d1d8	-0.17951143
155	0xbd5e8056	-0.05432161
156	0xbdeff99e	-0.117175326
157	0x3e5dc527	0.21657239
158	0x8bb7d7a4	-7.0813496e-32
159	0x86b62e56	-6.8528876e-35
160	0x3d9b1d11	0.07573903
161	0xbdbae0ae	-0.091248855
162	0x8cf24110	-3.7325162e-31
163	0x852dd668	-8.173801e-36
164	0xbdbb4db3	-0.09145679
165	0x3cf7bb49	0.030240672
166	0xbe198812	-0.14993313
167	0xbd40e799	-0.04709587
168	0xbcbe143c	-0.023203008
169	0xbe3c6d37	-0.18401037
170	0x89a9206c	-4.071576e-33
171	0xbdd95114	-0.106111676
172	0x3a982a8c	0.001160936
173	0x865e3c2c	-4.1797767e-35
174	0x87cb7e98	-3.061845e-34
175	0xbdac658f	-0.08417808
176	0x86be82f3	-7.166247e-35
177	0x06713990	4.5369352e-35
178	0xbe10764a	-0.14107624
179	0x3ed148bc	0.40875804
180	0x3d956308	0.07294279
181	0x3e04a374	0.12952977
182	0xbe826e0d	-0.25474587
183	0x850a1ba8	-6.4938085e-36
184	0x3dadbdd1	0.0848347
185	0xbcf262e2	-0.029588167
186	0x3e606848	0.2191478
187	0xbd61de64	-0.05514373
188	0x898528d5	-3.2056984e-33
189	0x3db3a8c7	0.08772426
190	0x3ed78cbc	0.4209956
191	0xbd4e5a05	-0.050378818
192	0xbe4bbe8b	-0.19896905
193	0x3a8c65f5	0.0010711538
194	0x0838d517	5.562097e-34
195	0xbdaf4aa0	-0.085591555
196	0x8b9cd179	-6.0404194e-32
197	0x3e3bc9ba	0.18338671
198	0x0689b784	5.1803324e-35
199	0x3d2c0c1e	0.042003743
200	0x3d9ab55a	0.07554121
201	0xbb3b96c5	-0.0028623801
202	0x3dc42de3	0.09579065
203	0x0555f6f8	1.0060573e-35
204	0xbe8fa5fc	-0.28056324
205	0x3d224ac7	0.039622094
206	0xbe907aa0	-0.28218555
207	0x3cc62d63	0.024191564
208	0x8848b790	-6.0401087e-34
209	0xbe4ca95a	-0.19986477
210	0xbdbf8d85	-0.093531646
211	0x3d73c259	0.059511516
212	0xbdd867e3	-0.1056669
213	0x3e9245f0	0.28568983
214	0xbe3907c6	-0.18069372
215	0xbe78a8d5	-0.24283154
216	0x3cfb80ee	0.030701127
217	0xbca029c6	-0.01955117
218	0xbe5f72a3	-0.21821074
219	0xbd6fd68a	-0.05855421
220	0xbef7c73b	-0.48394188
221	0x3c73e525	0.014886175
222	0x920d84e5	-4.465556e-28
223	0x054ae5d1	9.540205e-36
224	0xbdd2245a	-0.1026084
225	0xbbada508	-0.0052992143
226	0x8cf38863	-3.7522163e-31
227	0x867295e4	-4.5625264e-35
228	0xbc4cdf12	-0.012504356
229	0x3d7bac1c	0.061443433
230	0x3e1dc79e	0.15408179
231	0xbdceb49a	-0.10093041
232	0x3d8bc69d	0.06824992
233	0x3cd80cae	0.026373234
234	0x8a0f7c51	-6.908581e-33
235	0xbf0131aa	-0.50466406
236	0xbde3f3ec	-0.11130509
237	0x85dddb92	-2.0863398e-35
238	0x8511f855	-6.8634786e-36
239	0x3e6d59f3	0.23178844
240	0x0ca4f9c5	2.5418525e-31
241	0x06371f7e	3.444161e-35
242	0xbe10480a	-0.1408998
243	0xbdf47998	-0.11937255
244	0xbd43eb66	-0.047831915
245	0xbd87addc	-0.06624958
246	0x3e794d1d	0.24345823
247	0x066bd865	4.435757e-35
248	0xbd2d2fda	-0.042281963
249	0x3e4b9d71	0.19884278
250	0xbe0809f9	-0.13285054
251	0xbeaf1e2d	-0.3420271
252	0x8b54f2f9	-4.1012507e-32
253	0xbc7c4e66	-0.015399551
254	0xbe552ee4	-0.20818669
255	0xbdda9ca5	-0.10674409

fc2.bias f4 [128]
0	0x3e1c94f8	0.15291202
1	0x9c08e72e	-4.529742e-22
2	0xbe2f57ff	-0.17123412
3	0x3dd3b031	0.1033634
4	0x8a912584	-1.3977104e-32
5	0x9da7d13e	-4.4420883e-21
6	0x98b70843	-4.7312733e-24
7	0x90cc4cd2	-8.058217e-29
8	0xbe1c2096	-0.15246806
9	0x3e2c844e	0.16847345
10	0x97730d0a	-7.853399e-25
11	0xbe3d3cb2	-0.18480185
12	0x98fa9bf3	-6.4780954e-24
13	0x3ee4390c	0.44574773
14	0x3e790bba	0.2432088
15	0x3ecbb832	0.39788967
16	0x98e451ad	-5.901909e-24
17	0x3e2fc8ce	0.17166445
18	0x3f03da8b	0.51505345
19	0x3e6d28b3	0.23160057
20	0x3e6f1ad9	0.23350085
21	0x9580e0c4	-5.2053406e-26
22	0x3e931e5e	0.28734106
23	0x99971f5a	-1.5625697e-23
24	0x3da83de4	0.0821493
25	0x3e342999	0.17593993
26	0x90a5fb0d	-6.546783e-29
27	0xbdf42ba0	-0.11922383
28	0x3e8af8bf	0.27142903
29	0xbc42c6d0	-0.011888221
30	0x3e551bb3	0.20811348
31	0x875f7c64	-1.681321e-34
32	0xbe8502cd	-0.259787
33	0x9000a0ba	-2.5367368e-29
34	0x3eab263b	0.33427605
35	0xbe4f8153	-0.20264177
36	0x3e770295	0.24122079
37	0x3ec175c2	0.37785155
38	0x898d88df	-3.407323e-33
39	0x3e828da9	0.25498703
40	0x8b1be8a3	-3.002693e-32
41	0x3e7a168b	0.24422662
42	0x9063c9ab	-4.4923216e-29
43	0x3e64d8c8	0.2234832
44	0x9a8d3e56	-5.841694e-23
45	0x3e5166ae	0.20449325
46	0x3e2e2062	0.1700454
47	0x92165b05	-4.7443845e-28
48	0x8b85f5b8	-5.1599453e-32
49	0x8d04eddf	-4.0961967e-31
50	0x98c9feda	-5.2214617e-24
51	0x3e436d9c	0.19084781
52	0xbc0e3328	-0.008679189
53	0xbd3e4461	-0.04645193
54	0x88d927d6	-1.3069578e-33
55	0x3f1e7d68	0.61910105
56	0x3e932b65	0.28744045
57	0x3e00a77d	0.12563892
58	0x984314bc	-2.5213627e-24
59	0x3ef2a85f	0.47394082
60	0x3cadb9f7	0.021206839
61	0x3e2c0ba9	0.16801323
62	0x9844c2c2	-2.5430734e-24
63	0xbcdd8d06	-0.027044784
64	0x9b1def5a	-1.3064074e-22
65	0xbe18c8fc	-0.1492042
66	0x933d6754	-2.3906098e-27
67	0x93229d62	-2.052487e-27
68	0xbcde01e4	-0.02710051
69	0xbeb31081	-0.3497353
70	0x98db8f6a	-5.6754984e-24
71	0x3de24679	0.11048598
72	0x9023de3f	-3.2317294e-29
73	0xa09ab34b	-2.620726e-19
74	0x8c34ada8	-1.3918953e-31
75	0x3e562622	0.20912984
76	0x97e8c4ad	-1.5042297e-24
77	0x3e536ccc	0.20646971
78	0xbb9c35c1	-0.00476715
79	0x3e98aadc	0.29817855
80	0x3e342a6c	0.17594308
81	0x93cd1d05	-5.177789e-27
82	0x900031dc	-2.528196e-29
83	0x3e8f2602	0.27958685
84	0xbb0e1943	-0.0021682538
85	0xbdcd1623	-0.10013988
86	0x3e206ac1	0.15665723
87	0x90ea5fa9	-9.2444114e-29
88	0xa61fff08	-5.550984e-16
89	0x3ebe0a8f	0.3711743
90	0x3e00012f	0.12500452
91	0x8e11da41	-1.7977715e-30
92	0x3d81c5c2	0.063365474
93	0xbe234458	-0.1594404
94	0x96809570	-2.0773824e-25
95	0x3ee438e4	0.44574654
96	0x8b1cd231	-3.0202638e-32
97	0x3e5183c0	0.20460415
98	0xbd59de66	-0.05319061
99	0x888e6371	-8.569693e-34
100	0xbe534c0e	-0.20634481
101	0x3dff2cf2	0.124597445
102	0x3e093cdc	0.13402122
103	0xbe7b2dca	-0.24529186
104	0x9d99e555	-4.0735887e-21
105	0x3e31b36b	0.17353599
106	0xbdd25178	-0.10269445
107	0x9f23610d	-3.459687e-20
108	0x3e1d1b65	0.15342481
109	0x3e98d5a6	0.298505
110	0x926f34ad	-7.548003e-28
111	0x90c81744	-7.8921937e-29
112	0x3c24d8bb	0.010061438
113	0x8e13702c	-1.8173158e-30
114	0x9a058ce4	-2.7617566e-23
115	0x3e24d6f3	0.16097622
116	0x87cbb2d0	-3.0649142e-34
117	0x967cb0c5	-2.0412177e-25
118	0x91ab6fbe	-2.704791e-28
119	0x99028816	-6.748325e-24
120	0x8ff21ea5	-2.3874846e-29
121	0x993961cd	-9.5840265e-24
122	0x9a0babf9	-2.8883445e-23
123	0x3e3ee489	0.18641867
124	0x3e2fe8fd	0.17178722
125	0x3ee07ac7	0.43843672
126	0xbf15164f	-0.58237165
127	0x98d45403	-5.4885546e-24

fc3.weight f4 [4, 128]
0	0x3dc7ffcf	0.097655885
1	0x9980b6d2	-1.330873e-23
2	0xbe34bbdc	-0.17649788
3	0x3e0639c1	0.13107969
4	0x87466437	-1.4925315e-34
5	0x1ccd71a3	1.3595136e-21
6	0x18258578	2.1393135e-24
7	0x8e2ace7e	-2.105354e-30
8	0xbdfb1fa3	-0.122618936
9	0xbe595ac7	-0.21226035
10	0x98ba4dd4	-4.815846e-24
11	0xbbf35f2d	-0.0074271173
12	0x987f7bb2	-3.3020428e-24
13	0xbfd9030d	-1.6954056
14	0xbd631576	-0.05544039
15	0x3c73a0e8	0.014869906
16	0x980a832a	-1.7902303e-24
17	0xbdc6f8ac	-0.09715399
18	0x3e945de2	0.28977877
19	0x3e97742d	0.29580823
20	0xbf4f37d5	-0.8094457
21	0x142b3d2c	8.645358e-27
22	0xbda56869	-0.08076555
23	0x9899e18c	-3.9777317e-24
24	0xbd738705	-0.059454937
25	0x3cd6e00a	0.026229877
26	0x0fdabfd0	2.1570343e-29
27	0x3e98147c	0.29703128
28	0x3e52e37e	0.20594594
29	0xbe6ea1e8	-0.2330395
30	0x3e0cc501	0.13747026
31	0x85197444	-7.21538e-36
32	0xbd07ab46	-0.033122323
33	0x0dde708a	1.3708899e-30
34	0xbe62167d	-0.22078891
35	0x3ebd773d	0.37005034
36	0xbf1fe21c	-0.6245439
37	0x3cd17efe	0.02557325
38	0x05584aad	1.0169987e-35
39	0x3c263164	0.010143612
40	0x08b75a30	1.1035115e-33
41	0x3e553ed5	0.2082475
42	0x0c1fb2fa	1.2302773e-31
43	0x3cbc18b4	0.022960998
44	0x18b3b9c7	4.6458003e-24
45	0x3da0fcb8	0.07860702
46	0x3e3248f1	0.17410637
47	0x8cd61585	-3.2984872e-31
48	0x068e31aa	5.348744e-35
49	0x0d3dd346	5.8494433e-31
50	0x1856d640	2.776702e-24
51	0xbeeea483	-0.46609887
52	0x3e2c01ff	0.16797636
53	0xbe8c68c1	-0.2742367
54	0x07810c82	1.9417114e-34
55	0x3eb2f849	0.34955052
56	0x3e421363	0.18952708
57	0x3e798e15	0.24370606
58	0x166523c3	1.8509757e-25
59	0x3e5f17ca	0.21786419
60	0xbe8f2d94	-0.2796446
61	0x3e5fc0c4	0.21850878
62	0x182bcdf6	2.2205216e-24
63	0xbba6742e	-0.0050797677
64	0x9aaa007e	-7.031115e-23
65	0x3e3b582c	0.18295354
66	0x0db8ed02	1.1396933e-30
67	0x9269d9f1	-7.379047e-28
68	0xbed691b7	-0.41908047
69	0x3e3a5881	0.18197824
70	0x975d5a5f	-7.1523016e-25
71	0xbf2f9480	-0.6858597
72	0x8a9b329e	-1.4944997e-32
73	0x222f1a94	2.3730993e-18
74	0x08fab38b	1.5088538e-33
75	0xbf168198	-0.58791494
76	0x17d9b2a3	1.4068391e-24
77	0xbd95d502	-0.07316019
78	0xbecf09af	-0.40437075
79	0x3e38223b	0.17981808
80	0xbecba712	-0.39775902
81	0x12a75c70	1.0561969e-27
82	0x0c5615a4	1.6492473e-31
83	0x3e4b491e	0.1985211
84	0x3dfe8dc7	0.12429386
85	0xbdfb0ba9	-0.122580834
86	0x3eacabe2	0.33724886
87	0x0e95d42c	3.693565e-30
88	0x257d0982	2.1947473e-16
89	0x3dadf722	0.084944025
90	0x3e88db76	0.26729935
91	0x8d5ad044	-6.7427127e-31
92	0x3ca192f2	0.01972339
93	0x3e491fad	0.1964099
94	0x96b1a905	-2.8702559e-25
95	0x3e83280e	0.25616497
96	0x05e012e6	2.1071801e-35
97	0xbe837eba	-0.25682622
98	0xbeb5b414	-0.3548895
99	0x87097617	-1.0341438e-34
100	0xbe8d0bc8	-0.2754805
101	0x3e5d7e0a	0.21630111
102	0xbcbd1fc7	-0.023086442
103	0xbe3b29eb	-0.18277709
104	0x1cbd7ec8	1.2539743e-21
105	0x3cafaee3	0.021445697
106	0x3f3acb05	0.72966033
107	0x9de37122	-6.0203376e-21
108	0x3e8c16b9	0.27361086
109	0xbf7436d4	-0.9539616
110	0x0d1ca28a	4.826686e-31
111	0x11901a37	2.273535e-28
112	0xbea5c8d1	-0.32379773
113	0x8c70ceeb	-1.8551195e-31
114	0x9945a467	-1.0217862e-23
115	0xbca85c39	-0.020551788
116	0x06824ac4	4.9010423e-35
117	0x15f172db	9.7520335e-26
118	0x93b20a48	-4.4943655e-27
119	0x17f5fd0c	1.5896632e-24
120	0x0f4201e5	9.565303e-30
121	0x973e06e7	-6.1401023e-25
122	0x18fc8862	6.5278185e-24
123	0x3e071ea7	0.13195287
124	0xbeb95ec5	-0.36205116
125	0x3e9293d9	0.28628424
126	0x3ecf7a6c	0.40523088
127	0x97ab34ab	-1.1063911e-24
128	0x3e79b69e	0.24386069
129	0x99ee20c6	-2.462186e-23
130	0x3de343fb	0.110969506
131	0xbb3f5d52	-0.002919991
132	0x0646abb1	3.73658e-35
133	0x1ccc23fd	1.350889e-21
134	0x986dacd1	-3.0718782e-24
135	0x8e7bf893	-3.1057823e-30
136	0xbd22f770	-0.039786756
137	0xbe89dcb2	-0.2692619
138	0x16e13981	3.6387e-25
139	0xbddabb7f	-0.10680293
140	0x17c33b3e	1.2616534e-24
141	0xbcc08f08	-0.023505703
142	0xbd62d304	-0.05537702
143	0xc0118d2d	-2.2742417
144	0x170f8afb	4.638121e-25
145	0xbedcbd0d	-0.43112984
146	0x3e95f0f6	0.292854
147	0xbe226d8e	-0.15862104
148	0x3ce39794	0.027782239
149	0x12b73d4f	1.1564037e-27
150	0x3ec65ea7	0.3874409
151	0x1947ed24	1.0335949e-23
152	0xbd28ab61	-0.041179065
153	0xbebeab7d	-0.3724021
154	0x0b5cc11d	4.251574e-32
155	0x3e1b75db	0.15181677
156	0x3e15b1f3	0.14618663
157	0xbe8e20ae	-0.27759308
158	0x3e1a257a	0.15053359
159	0x86117fa3	-2.7365242e-35
160	0x3d2130db	0.039353233
161	0x8de7da0d	-1.4288968e-30
162	0x3e074861	0.13211204
163	0x3e2d7017	0.1693729
164	0xbd9c746b	-0.076393925
165	0x3d646793	0.05576284
166	0x868b790d	-5.2463857e-35
167	0xbf42cffa	-0.760986
168	0x85e4bfad	-2.1511428e-35
169	0x3d7f18fa	0.06227968
170	0x0edf81c9	5.5098723e-30
171	0xbf2b9c29	-0.67035156
172	0x988841e5	-3.5221713e-24
173	0x3e08b7cc	0.13351363
174	0x3d5f6732	0.054541774
175	0x92889235	-8.618849e-28
176	0x870c0656	-1.0534291e-34
177	0x8a82a318	-1.2579894e-32
178	0x1630e875	1.4290517e-25
179	0x3e75eaa7	0.24015294
180	0xbee72eb3	-0.45152816
181	0xbe9cac4a	-0.30600196
182	0x87826f28	-1.9625558e-34
183	0x3ea65e5b	0.32493863
184	0x3e860b2a	0.26180393
185	0x3e574e03	0.21025853
186	0x968206fd	-2.1007043e-25
187	0x3e8de59b	0.27714238
188	0xbe780190	-0.24219346
189	0xbe3c55cc	-0.18392104
190	0x16b1ab1b	2.8703875e-25
191	0xbcfe0dd2	-0.03101245
192	0x98c18213	-5.0020672e-24
193	0x3e71939f	0.23591469
194	0x1205bfed	4.2203967e-28
195	0x8e35e675	-2.2420934e-30
196	0x3cd86337	0.026414497
197	0x3edd10f2	0.4317699
198	0x9869121e	-3.0123691e-24
199	0xbd1afa7e	-0.037836544
200	0x8d279fc0	-5.165314e-31
201	0x22872676	3.6632545e-18
202	0x87a0fa4f	-2.4221242e-34
203	0x3db536a2	0.08848311
204	0x1705d14a	4.323878e-25
205	0xbd24dc3c	-0.040249094
206	0x3dbf44ee	0.09339319
207	0xbf4f1013	-0.808839
208	0xbe5b8cc9	-0.21440424
209	0x11d3d1b1	3.3419163e-28
210	0x0e8e67a6	3.5105512e-30
211	0x3e785019	0.24249305
212	0x3dcbad19	0.09945125
213	0xbee24bdd	-0.44198504
214	0x3e8b1400	0.27163696
215	0x0cb2f155	2.757049e-31
216	0x25561644	1.8569085e-16
217	0x3c412bf4	0.011790264
218	0x3e5fe61d	0.21865125
219	0x0c1be93c	1.2010952e-31
220	0xbccdbcee	-0.025114503
221	0x3e6dab0b	0.23209779
222	0x175ee796	7.202437e-25
223	0x3e94a467	0.2903168
224	0x070f2efd	1.0771933e-34
225	0xbdca8d49	-0.09890229
226	0xbeb07de5	-0.3447105
227	0x06700bcc	4.514765e-35
228	0xbe07325c	-0.13202804
229	0x3e833c36	0.25631875
230	0xbb220a62	-0.0024725427
231	0xbe7f8744	-0.24953943
232	0x1bdbc408	3.6357193e-22
233	0xbd6019cb	-0.054712098
234	0x3c54d589	0.012990364
235	0x9eb9fc17	-1.9691899e-20
236	0xbd855847	-0.06510978
237	0x3cb82721	0.022479596
238	0x102e723c	3.4403452e-29
239	0x8ee69cb2	-5.685027e-30
240	0x3e5b63bc	0.21424764
241	0x0a3474a4	8.6886224e-33
242	0x990ef44d	-7.390564e-24
243	0xbd116c6c	-0.03550379
244	0x07bf87c6	2.8818286e-34
245	0x140cf1b8	7.115864e-27
246	0x0d472b87	6.1374004e-31
247	0x176390a1	7.3530203e-25
248	0x0d38d231	5.6952386e-31
249	0x17bb8d7b	1.2120306e-24
250	0x995fd8d3	-1.1572617e-23
251	0x3e1c5d91	0.15270068
252	0x3e091ae4	0.13389164
253	0x3d530341	0.051516775
254	0x3ed52cb6	0.41635674
255	0x16e03d7f	3.6227961e-25

fc3.bias f4 [4]
0	0x3e83c9fa	0.25740033
1	0x3e8b88e6	0.27252883
2	0x3e6f7815	0.23385651
3	0x3e7b271c	0.24526638
