models/snake20k.pth (torch, 712256 bytes, 10 tensors)

conv1.weight f4 [32, 1, 3, 3]
0	0x3bf6c85b	0.0075312085
1	0x3b81f40d	0.0039658607
2	0xbee85366	-0.45376128
3	0xba72582e	-0.0009244707
4	0x3ed71736	0.42009896
5	0x3ee5e429	0.44900635
6	0xb8d1ac09	-9.997941e-05
7	0xbeda22d4	-0.42604697
8	0xbc9ea19d	-0.019364173
9	0x3cf51560	0.029917419
10	0x3cff25bc	0.031145923
11	0x3e8f157d	0.27946082
12	0x3c9e8808	0.019351974
13	0xbcc972db	-0.0245909
14	0x3d718a0d	0.058969546
15	0xbcbc34d4	-0.02297441
16	0xbf1ec3d5	-0.62017566
17	0x3f1e99e7	0.61953586
18	0x3ead5ed0	0.338614
19	0xbc60aa26	-0.013712442
20	0xbd43bd7f	-0.04778814
21	0xbc4a7b58	-0.012358509
22	0xbe8167ca	-0.25274497
23	0xbcef610b	-0.029221078
24	0xbec1b5f9	-0.37834147
25	0x3e3ef8ae	0.18649551
26	0x3d23f1c3	0.040025484
27	0xbd23c720	-0.039984822
28	0x3ca5252a	0.020159323
29	0xbc2a9923	-0.010412487
30	0xbf338907	-0.7013096
31	0xbcf8ac7a	-0.03035568
32	0x3d001af2	0.031275697
33	0x3f2f1036	0.6838411
34	0xbba833d8	-0.0051331334
35	0x3c94fa72	0.018185828
36	0xbbc9d278	-0.006159123
37	0x3d57c50a	0.052678145
38	0xbe565f97	-0.20934902
39	0x3cd85af9	0.026410567
40	0x3c4e01c0	0.012573659
41	0xb9e5385f	-0.00043720283
42	0x3ea3a65f	0.3196287
43	0xbc957c6d	-0.018247807
44	0xbb7cecda	-0.0038593323
45	0xbf049eb1	-0.51804644
46	0xbc6a0806	-0.0142841395
47	0xbc4ac724	-0.01237658
48	0x3bd36bd1	0.0064520617
49	0xbbeca367	-0.0072216275
50	0x3c65aca1	0.014018209
51	0xbd150738	-0.036383837
52	0x3c93f48c	0.018060945
53	0xbf01b83b	-0.5067174
54	0xbc9084d7	-0.017641468
55	0xbf1a18a1	-0.6019383
56	0x3f361254	0.71121716
57	0xbb4e227d	-0.0031453662
58	0x3c498b16	0.012301227
59	0x3edcac87	0.43100378
60	0xbcb432fb	-0.021996966
61	0x3a994232	0.0011692701
62	0x3d739596	0.05946883
63	0x3ef959c3	0.48701295
64	0x3c98e2d0	0.01866284
65	0x3f237006	0.6384281
66	0x3c1f79da	0.0097336415
67	0x3c7dfcf9	0.015502208
68	0xbf250be4	-0.6447127
69	0x3cb5e4a7	0.022203756
70	0xbc7eaae6	-0.015543675
71	0x3b94a6bd	0.0045364783
72	0xbd70ff8d	-0.058837462
73	0xbe7bff2b	-0.24609058
74	0x3f013033	0.5046417
75	0xbe7c92f9	-0.2466544
76	0xbe845dc1	-0.2585278
77	0x3e9c2283	0.3049508
78	0x3ea4dbe2	0.32199007
79	0x3ea736a4	0.32658875
80	0x3eaff02d	0.34362927
81	0x3ed9f4a9	0.42569473
82	0xbe91f54f	-0.28507468
83	0xbe5d090e	-0.21585485
84	0xbe4f1a4c	-0.20224875
85	0xbd80226d	-0.06256566
86	0x3cdcbe43	0.026946193
87	0x3d29b77c	0.04143475
88	0xbe5d6fe2	-0.21624711
89	0xbd74b209	-0.0597401
90	0xbe362a6f	-0.17789625
91	0xbd0f169f	-0.034933683
92	0x3edaf9ea	0.42768794
93	0x3de4276c	0.111403316
94	0xbe64ff85	-0.22363098
95	0xbeac7ec3	-0.33690462
96	0xbdfbdb58	-0.12297696
97	0x3e2d4f17	0.16924702
98	0xbe5ee131	-0.21765591
99	0x3f1cff52	0.6132709
100	0xbf15a734	-0.58458257
101	0x39eea64a	0.00045518792
102	0x3f1e56e4	0.61851335
103	0xbc0580f6	-0.008148422
104	0x3cb5a6cc	0.022174262
105	0x3f0e5b0c	0.55607677
106	0x3d010186	0.031495593
107	0xbc7dd247	-0.015492029
108	0x3f0dd624	0.5540488
109	0x3ee4d734	0.44695437
110	0x3f10a041	0.5649453
111	0x3f011891	0.5042811
112	0x3b500aea	0.0031744787
113	0x3f0305be	0.51180637
114	0x3f13a599	0.57674557
115	0x3f02cc9f	0.51093477
116	0x3f0fee29	0.5622278
117	0xbf098129	-0.5371271
118	0x3eb93c40	0.3617878
119	0x3eb8a8d6	0.36066312
120	0x3ebabbaa	0.364713
121	0x3ebf3812	0.37347466
122	0x3c45b38f	0.012066736
123	0x3ec0feef	0.376945
124	0x3eb5cd55	0.35508218
125	0xbf058164	-0.5215056
126	0x3ec67ed4	0.38768637
127	0x3c9e28f0	0.01930663
128	0xbc18ebfd	-0.009333608
129	0x3c88e0b0	0.016708702
130	0x3b8d91fa	0.0043203803
131	0x3c2932bc	0.010327037
132	0x3c1e9a3f	0.00968033
133	0x3c43851a	0.011933589
134	0xbe778cd8	-0.24174821
135	0x3ef5d783	0.48015985
136	0x3ef4c3bf	0.47805592
137	0x3ef45914	0.4772421
138	0xbdadc84c	-0.08485469
139	0x3e2109ca	0.1572639
140	0x3ef28f0e	0.47374767
141	0xbdb33713	-0.08750739
142	0xbdc65beb	-0.09685501
143	0x3edf9f2b	0.43676123
144	0xbd8501d5	-0.0649449
145	0xbbb64ab6	-0.0055631055
146	0xbe59a443	-0.21254067
147	0x3eb0f0df	0.3455877
148	0xbe4c603e	-0.19958588
149	0xbc8a015e	-0.016846355
150	0x3f013d09	0.5048376
151	0x3ee46999	0.44611815
152	0xbe8f603b	-0.28003106
153	0x3f2d57e9	0.67712265
154	0x3ee78a23	0.45222577
155	0x3d04f1f6	0.032457314
156	0x3ef8eb16	0.48616856
157	0x3cd6129a	0.026131917
158	0xbc107f51	-0.008819417
159	0x3d7bd88f	0.061485823
160	0xbd7d1d41	-0.061795477
161	0xbcb3180e	-0.021862056
162	0xbcf388b4	-0.029728271
163	0x3c6af50b	0.014340649
164	0xbce41fc7	-0.027847184
165	0x3dac86dc	0.0842416
166	0x3cc36668	0.023852542
167	0x3ce17f58	0.027526543
168	0xbeb689ce	-0.35652012
169	0xbdc1447c	-0.094368905
170	0xbc8ebe3a	-0.017424691
171	0xbe8f8b95	-0.2803618
172	0x3e481e26	0.1954275
173	0xbf127ba6	-0.5721992
174	0xbd398226	-0.045290135
175	0xbe5a39fd	-0.21311183
176	0x3e7030bd	0.23456092
177	0xbd662d73	-0.056195688
178	0x3c9c54b7	0.019083364
179	0x3ea33ee4	0.3188392
180	0x3d0e2acd	0.034708787
181	0x3e9a8a1e	0.301835
182	0x3ebe6776	0.3718831
183	0x3c092eb1	0.0083729485
184	0x3ecab095	0.39587846
185	0x3ebee5bf	0.37284657
186	0xbec04cd6	-0.3755862
187	0x3ebd3238	0.36952376
188	0xbec3b78d	-0.38225976
189	0xbe59b325	-0.21259744
190	0xbe1483c9	-0.14503397
191	0x3cb9de94	0.022689141
192	0x3e4a6a36	0.19767079
193	0x3eca3b1d	0.39498225
194	0xbec22330	-0.3791747
195	0x3ec96da8	0.39341474
196	0xbf13ea58	-0.57779455
197	0x3eb07329	0.3446286
198	0x3d97c306	0.07410245
199	0x3cca276e	0.024677005
200	0x3c48d86b	0.012258629
201	0xbe96f99c	-0.29487312
202	0x3d1ad43a	0.03780005
203	0x3e9176eb	0.2841104
204	0x3ee89022	0.45422465
205	0x3e98ce03	0.29844674
206	0x3c985fbf	0.018600343
207	0xbe3d49be	-0.18485162
208	0x3e0fced0	0.14043736
209	0x3f105a04	0.5638735
210	0xbd3d3a7b	-0.04619835
211	0x3deda404	0.11603549
212	0x3c0e4dd0	0.008685544
213	0xbdd3afef	-0.10336291
214	0xbe4cb084	-0.1998921
215	0xbdfb2334	-0.12262574
216	0xbd182cfb	-0.03715227
217	0xbb88c218	-0.0041735284
218	0xbc2e2e8f	-0.010631218
219	0xbd127846	-0.035759233
220	0xbc809b7d	-0.015699143
221	0x3d9a0a33	0.075214766
222	0xbf208a0a	-0.6271063
223	0x3f2036ed	0.6258381
224	0x3ed16b11	0.40901998
225	0x3d0bfb38	0.034175128
226	0x3eac16ff	0.33611295
227	0xbead47db	-0.33843884
228	0x3eaefefd	0.34178916
229	0x3ea26423	0.31717023
230	0xbea2aa05	-0.3177034
231	0xbea891bc	-0.32923687
232	0x3c53b5dc	0.012921777
233	0xb95028fe	-0.00019851697
234	0x3f1315b9	0.5745502
235	0x3c252619	0.010079884
236	0x3ef70343	0.48244676
237	0xbf19715b	-0.5993859
238	0xbb46f0c2	-0.0030355905
239	0x3cb2b567	0.021815015
240	0x3b90f312	0.0044235075
241	0x3bc6cc6f	0.006066851
242	0x3bc6ef6c	0.006071022
243	0x3e45655f	0.19276951
244	0x3d2f1a69	0.042749796
245	0x3eae78e9	0.34076622
246	0x3ecfa7ea	0.40557796
247	0x3bb202ff	0.005432486
248	0xbeaf90e1	-0.3429022
249	0xbebbb768	-0.36663365
250	0x3be4179c	0.0069608223
251	0x3ea2562e	0.31706375
252	0xbe61ba1c	-0.22043651
253	0xbbcd6fd6	-0.0062694354
254	0x3d5f27ed	0.054481436
255	0xbc2a4682	-0.010392787

conv1.bias f4 [32]
0	0xbe774296	-0.24146494
1	0xbeb95ec9	-0.36205128
2	0xbe9f94c8	-0.311682
3	0xbeda6cb4	-0.4266106
4	0xbc3c8e34	-0.011508513
5	0xbe90d686	-0.28288668
6	0xbe9fc2b4	-0.31203234
7	0xbeb21cfb	-0.34787735
8	0xbeb10c5f	-0.3457975
9	0xbec794ee	-0.38980812
10	0xbee59531	-0.44840387
11	0xbea7ae07	-0.3274996
12	0x3e8c8823	0.27447614
13	0xbec13352	-0.37734467
14	0xbc952164	-0.018204398
15	0xbe5e1b7c	-0.21690172
16	0xbeb78ccb	-0.35849604
17	0xbe1fdf5a	-0.15612546
18	0xbdd2f142	-0.102999225
19	0xbeee12f9	-0.4649885
20	0xbe4895af	-0.1958835
21	0xbecc39c4	-0.39887822
22	0xbd226399	-0.039645765
23	0xbeabf45b	-0.33584866
24	0xbed5d4a7	-0.41763803
25	0xbf01666a	-0.50546896
26	0xbea1e6a0	-0.31621265
27	0xbe672f0c	-0.2257654
28	0xbc7d01e2	-0.015442343
29	0xbec2fb17	-0.3808219
30	0xbe4b0a31	-0.19828106
31	0xbd9b7954	-0.07591501

conv2.weight f4 [128, 32, 3, 3]
0	0x3e934c8f	0.28769347
1	0xbe094cd3	-0.13408212
2	0xbab32ce8	-0.0013669999
3	0x3cf5a1ba	0.029984344
4	0x3bac4987	0.0052577886
5	0x3d93f652	0.07224716
6	0x3d7fb92c	0.062432453
7	0xbda96bce	-0.08272515
8	0xbdacc168	-0.08435327
9	0x3d6cdca8	0.05782762
10	0x3dcc5c47	0.09978538
11	0xbcb5a3a2	-0.022172753
12	0x3d35ccfe	0.04438495
13	0xbceacc2e	-0.028661814
14	0x3e95ab69	0.29232338
15	0x3e24716c	0.16058892
16	0xbe988d4e	-0.29795307
17	0xbdc5a8bc	-0.09651324
18	0x3d4a640a	0.04941181
19	0xbd39f3cc	-0.04539852
20	0xbe14b388	-0.1452161
21	0xbe8a970f	-0.27068374
22	0x3de5edfa	0.11227031
23	0x3d57dec2	0.052702673
24	0x3dd4e6f9	0.10395617
25	0x3ee518ec	0.44745576
26	0xbd7fbc04	-0.062435165
27	0xbe30774f	-0.17233013
28	0xbe7b650b	-0.24550264
29	0xbe416fe4	-0.18890339
30	0x3da6619f	0.081240885
31	0xbe832aad	-0.25618497
32	0xbd96db94	-0.073661
33	0xbf0db3e8	-0.5535264
34	0xbf043985	-0.5165027
35	0x3e7704b4	0.24122888
36	0x3d7eaa78	0.06217429
37	0xbdff6bb6	-0.12471716
38	0xbe971aac	-0.29512537
39	0x3ea80e1f	0.32823274
40	0xbe780c0b	-0.24223344
41	0xbbe1d281	-0.006891549
42	0xbf592dc0	-0.84835434
43	0xbe25fd9b	-0.16210024
44	0xbd69b8bf	-0.057060953
45	0xbe25b198	-0.16181028
46	0xbda036d7	-0.0782296
47	0xbdaf7495	-0.08567158
48	0xbd9db817	-0.07701128
49	0xbce8a41f	-0.028398572
50	0x3c410523	0.01178101
51	0xbedd06cc	-0.43169248
52	0x3b958018	0.004562389
53	0xbb4cb1db	-0.003123394
54	0x3d463835	0.048393447
55	0x3d9b43d3	0.07581296
56	0xbbdc1f04	-0.0067175645
57	0xbdf798b1	-0.120896704
58	0x3d823aef	0.06358897
59	0xbe5162be	-0.20447823
60	0x3e4b0feb	0.19830291
61	0x3e1839a8	0.14865744
62	0xbc30378d	-0.010755432
63	0x3c6cd0f9	0.01445412
64	0x3e351756	0.17684683
65	0xbe5070db	-0.20355551
66	0xb9e39708	-0.0004340934
67	0x3cd27fc9	0.025695698
68	0x3e117fe2	0.1420894
69	0x3e5f83e6	0.21827659
70	0xbb9f71b8	-0.0048658513
71	0xbcb44313	-0.02200464
72	0x3de70aa6	0.11281328
73	0xbd33a9fc	-0.04386328
74	0xbe303eeb	-0.17211501
75	0x3e32f600	0.17476654
76	0xbdd4c55f	-0.10389208
77	0xbde0c337	-0.10974734
78	0x3dd6ec0e	0.104942426
79	0xbd37818f	-0.04480129
80	0x3e3beffe	0.18353269
81	0xbe3a7b7e	-0.18211171
82	0x3dcf30f2	0.101167575
83	0xbe8c997a	-0.27460843
84	0xbe194acf	-0.14969943
85	0xbdbb86d5	-0.091565765
86	0xbe0d6d72	-0.13811281
87	0x3def419f	0.11682438
88	0x3e3965f2	0.18105295
89	0xbe4ccefe	-0.20000836
90	0xbdaf1f55	-0.08550898
91	0x3cd4ef3e	0.025992986
92	0xbdf0bdf6	-0.11754982
93	0xbe315371	-0.17316987
94	0xbe5f2e38	-0.21794975
95	0x3cb7c673	0.022433495
96	0xbe0a8b78	-0.13529766
97	0x3e95ed4b	0.29282603
98	0xbe34e5e1	-0.17665817
99	0xba92ace5	-0.0011190443
100	0xbe4868fe	-0.19571301
101	0xbd6112ad	-0.05494945
102	0xbd1df7d8	-0.03856644
103	0x3ba2ce05	0.004968407
104	0xbc2389b1	-0.009981559
105	0xbed032fb	-0.40663895
106	0xbd9254a8	-0.07145053
107	0xbd6e4570	-0.05817169
108	0x3d1b43cd	0.037906457
109	0xbe3f9f9f	-0.18713234
110	0x3d0a6f35	0.03379746
111	0xbcd6353e	-0.026148435
112	0xbdccb9f8	-0.09996408
113	0xbdf4daaf	-0.11955773
114	0xbefbfb83	-0.49215326
115	0xbefcf381	-0.4940453
116	0x3d0741e0	0.033021808
117	0x3d812b4f	0.063070886
118	0x3d6a54f2	0.057209916
119	0xbc819820	-0.01581961
120	0xbd5cc639	-0.053899977
121	0xbe67ed2d	-0.22649069
122	0xbad16f0a	-0.0015978527
123	0xbdd3edba	-0.10348077
124	0xbe8ab019	-0.27087477
125	0x3d9180a4	0.071046144
126	0xbe06f706	-0.1318017
127	0x3e21fcaa	0.1581904
128	0xbd84557f	-0.064616196
129	0xbd014c42	-0.031566866
130	0xbc481a10	-0.012213245
131	0xbd516295	-0.051119406
132	0xbe635a8e	-0.22202513
133	0xbe99bfaf	-0.30029055
134	0xbec7baf4	-0.3900982
135	0xbf108988	-0.56459856
136	0xb9f5e34c	-0.0004689939
137	0x3e9524a4	0.29129517
138	0xbdd688e6	-0.1047533
139	0xbd19d2ec	-0.037554666
140	0x3ea41068	0.32043767
141	0xbd17a075	-0.037018258
142	0xbe55d7a3	-0.2088304
143	0xbdd7bb20	-0.10533738
144	0xbd2f78e6	-0.042839907
145	0x3e3640b9	0.17798127
146	0x3cd0de60	0.025496662
147	0xbd29afdf	-0.04142749
148	0xbe5bcb43	-0.21464257
149	0x3e0eafdc	0.13934273
150	0xbd9357d1	-0.07194484
151	0xbe1db22c	-0.15399998
152	0x3d4beacd	0.04978447
153	0xbe88c658	-0.26713824
154	0xbdabf0e5	-0.08395556
155	0xbdb36312	-0.087591305
156	0xbd826c61	-0.06368328
157	0xbd984f02	-0.074369445
158	0xbe0983b9	-0.13429154
159	0x3e24f73c	0.16109937
160	0xbccbde78	-0.024886355
161	0x3da7f84a	0.08201654
162	0xbe8df167	-0.27723238
163	0xbdfefb65	-0.124502935
164	0xbc0cf9f9	-0.00860452
165	0xbe7b939d	-0.24568029
166	0x3e11787f	0.14206122
167	0x3bd09c5e	0.0063662967
168	0x3f1508e1	0.58216673
169	0x3e28341a	0.16426125
170	0xbec369e6	-0.38166732
171	0xbea9fa34	-0.33198702
172	0x3c7919cd	0.015203905
173	0x3bb37f7b	0.0054778433
174	0xbca3a848	-0.019977704
175	0x3be48b04	0.0069745798
176	0xbe49f71d	-0.19723172
177	0x3e518b9c	0.20463413
178	0x3ce05bbc	0.027387492
179	0xbbbaf449	-0.0057053906
180	0xbe800d85	-0.25010315
181	0xbd2995b1	-0.041402522
182	0x3d50af49	0.050948415
183	0xbcab7235	-0.020928482
184	0xbcfe6d49	-0.03105797
185	0xbe090059	-0.13379039
186	0xbe6b93cd	-0.230056
187	0x3e2a8cb9	0.16655244
188	0xbe7065c1	-0.23476316
189	0x3cdb99d1	0.026806744
190	0x3c939b42	0.018018369
191	0x3e0d5b84	0.13804442
192	0x3ec21fdb	0.3791493
193	0xbe1af4c3	-0.15132432
194	0x3e00c0f2	0.12573603
195	0xbf13f33f	-0.5779304
196	0xbd5c01eb	-0.053712767
197	0xbe769979	-0.24081983
198	0x3e125b88	0.14292729
199	0xbe4bc3e6	-0.19898948
200	0x3db85629	0.09000809
201	0xbe2a06c8	-0.1660415
202	0xbe661081	-0.22467233
203	0x3c6667d5	0.014062841
204	0x3c64405b	0.013931359
205	0xbeb8d1bb	-0.36097512
206	0x3c669eff	0.014075994
207	0xbe63c41d	-0.2224278
208	0x3e27c535	0.16383822
209	0x3e04f5a3	0.12984328
210	0xbd4c5680	-0.04988718
211	0xbe48e390	-0.19618058
212	0x3d569bb6	0.05239459
213	0xbe43b259	-0.19111003
214	0x3e9ba0c7	0.303961
215	0xbe1de5cd	-0.15419693
216	0xbd37f0aa	-0.04490725
217	0xbd801e9b	-0.062558375
218	0xbd1bff77	-0.038085427
219	0xbe4efa18	-0.2021259
220	0x3d32f247	0.043688085
221	0xbe048ca1	-0.1294427
222	0xbe9e7268	-0.3094666
223	0x3ecc929c	0.39955604
224	0xbe83f431	-0.2577224
225	0xbd8dc764	-0.06922796
226	0x3e43348a	0.19063011
227	0xbdca7089	-0.09884746
228	0xbd842684	-0.06452659
229	0xbdddb160	-0.10824847
230	0x3d61806f	0.055054124
231	0xbe0ae808	-0.13565075
232	0x3e8734ed	0.26407567
233	0x3e470fd2	0.19439629
234	0xbe982ed1	-0.29723218
235	0x3eb69c93	0.35666332
236	0x3e24e69e	0.16103598
237	0xbd0268bb	-0.03183816
238	0x3e9555d0	0.29167032
239	0x3d9f68b0	0.077836394
240	0xbcd82076	-0.026382666
241	0x3e1778e0	0.14792204
242	0x3de48fd9	0.11160249
243	0xbd146efc	-0.036238655
244	0x3d7e3554	0.062062576
245	0xbe248a6a	-0.16068426
246	0xbe8dc148	-0.27686524
247	0x3cfaccb3	0.030615186
248	0x3df29fb6	0.11846869
249	0x3da7665c	0.081738204
250	0xbc9b321a	-0.018944789
251	0xbd1cabe0	-0.03824985
252	0xbe80cc14	-0.251557
253	0xbd720eb5	-0.059096057
254	0xbd819de5	-0.06328944
255	0x3d31ed38	0.04343912

conv2.bias f4 [128]
0	0xbd5983da	-0.05310426
1	0xacdd68c8	-6.292831e-12
2	0xacaefc13	-4.9733633e-12
3	0xbe50eb76	-0.20402321
4	0x3ed29f77	0.41137287
5	0xae846f2f	-6.022415e-11
6	0x3c99dca2	0.018781964
7	0x3d8bfbb6	0.068351194
8	0xac43888a	-2.7786961e-12
9	0xbe3ad265	-0.18244322
10	0xbe1cf07c	-0.15326113
11	0xb2222799	-9.4386445e-09
12	0x3d9f7b82	0.07787229
13	0xad0a89b5	-7.874969e-12
14	0xad1aac32	-8.7921215e-12
15	0xbd75079b	-0.059821706
16	0xbe7d4ee0	-0.2473712
17	0xada22b69	-1.8436546e-11
18	0xaca9a4ec	-4.821579e-12
19	0xad910a3f	-1.6489142e-11
20	0x3c3035e8	0.01075504
21	0xaaedf432	-4.2269102e-13
22	0xaae21b75	-4.0164717e-13
23	0xac146f30	-2.1093786e-12
24	0xaf88ba55	-2.4870653e-10
25	0xb4a05c39	-2.9869423e-07
26	0x3e72d386	0.23713502
27	0xad1739fa	-8.59623e-12
28	0xbe1eb7a8	-0.15499747
29	0x3eb37518	0.35050273
30	0xaddf7293	-2.5403046e-11
31	0xbe330149	-0.17480959
32	0xadb9c932	-2.1121414e-11
33	0xacc5f8e8	-5.626711e-12
34	0xac8eb5bb	-4.056059e-12
35	0xbe2a1f64	-0.16613537
36	0x3de42df0	0.111415744
37	0xadf06419	-2.7329293e-11
38	0xbe304332	-0.17213133
39	0xbde8f81f	-0.1137545
40	0xac1a26ae	-2.1906188e-12
41	0xbe120e8c	-0.14263362
42	0xad3eac44	-1.08385e-11
43	0xada14062	-1.8332173e-11
44	0xadf75eef	-2.8122808e-11
45	0xbe189b52	-0.14903
46	0xbe0ea598	-0.13930357
47	0xad2a61e9	-9.685122e-12
48	0xad08105b	-7.734337e-12
49	0xabd3ae53	-1.5040836e-12
50	0xabb76889	-1.3031946e-12
51	0xac14cee9	-2.1146923e-12
52	0x3da811ff	0.082065575
53	0xaeb520c5	-8.236748e-11
54	0xb245aba7	-1.1505938e-08
55	0xbe1ef36d	-0.15522547
56	0xaf57fbd9	-1.964361e-10
57	0x3dbbc014	0.09167495
58	0xaf1a7516	-1.4047816e-10
59	0xadd9422b	-2.4699428e-11
60	0xbe49d76e	-0.19711086
61	0xac429577	-2.7652028e-12
62	0xac8c339c	-3.984769e-12
63	0xb1159690	-2.1767939e-09
64	0xbd3fee4e	-0.046858124
65	0xacf3eb36	-6.932589e-12
66	0xad9f9f34	-1.8146908e-11
67	0xac9c64fa	-4.4449973e-12
68	0x3dee9077	0.11648648
69	0xad395857	-1.0535648e-11
70	0xbedae370	-0.42751646
71	0xbef7a816	-0.48370427
72	0xb0f3c41d	-1.7736316e-09
73	0xac3bb777	-2.6676142e-12
74	0x3d740e10	0.059583724
75	0xacdfa7c2	-6.356666e-12
76	0xaea255aa	-7.382124e-11
77	0xadf1a27a	-2.7470682e-11
78	0xad221a3c	-9.214459e-12
79	0x3d3cdc67	0.04610863
80	0xabbd2aa1	-1.344109e-12
81	0xb038d4f5	-6.724144e-10
82	0xbe95c0d7	-0.29248688
83	0x3d85af4d	0.065275766
84	0xbe88ffb7	-0.26757595
85	0x3ef7e539	0.4841707
86	0xaf4c661e	-1.8589971e-10
87	0x3dd391a0	0.1033051
88	0xad065e4f	-7.637959e-12
89	0xacd6ec38	-6.1084714e-12
90	0x3ccb0a02	0.024785046
91	0xbecb3db4	-0.39695513
92	0xbdb6d762	-0.089278
93	0xbef258f6	-0.47333497
94	0xb1db49ac	-6.3821144e-09
95	0xbee56e00	-0.44810486
96	0x3e4a4a98	0.19755018
97	0xbda35ed5	-0.07977072
98	0xac26b9a3	-2.3693068e-12
99	0xac573ffd	-3.0588858e-12
100	0x3e7dabd4	0.24772578
101	0x3e264d9c	0.16240543
102	0xbd964697	-0.07337683
103	0xbe595d93	-0.21227102
104	0xad4300af	-1.10846185e-11
105	0xabf749b5	-1.7570863e-12
106	0xadd960b8	-2.4712996e-11
107	0xacc4271d	-5.5749975e-12
108	0xaa2692d3	-1.4794702e-13
109	0xac8c47bd	-3.987004e-12
110	0xbea94575	-0.33060804
111	0xaa9f190c	-2.8261454e-13
112	0xbe4a8f36	-0.19781193
113	0xbe137d2e	-0.14403221
114	0xbec12aa1	-0.37727836
115	0xac9cf1cc	-4.4606315e-12
116	0xbb95d9c9	-0.004573081
117	0xad987978	-1.7334342e-11
118	0xbe600e00	-0.2188034
119	0xbd7e167b	-0.062033158
120	0xac0d388f	-2.0068701e-12
121	0xbed1b2c5	-0.40956703
122	0xac56df88	-3.0535314e-12
123	0xac970de8	-4.293222e-12
124	0xabd1a23b	-1.4895371e-12
125	0xbe8622e1	-0.26198485
126	0xae67ded9	-5.2721248e-11
127	0xafad76f2	-3.1553032e-10

fc1.weight f4 [64, 2048]
0	0xbe56fe5e	-0.20995471
1	0x3e0735fb	0.13204186
2	0xbf056080	-0.5210037
3	0xbeaff40e	-0.34365886
4	0xbabd5d46	-0.0014447353
5	0xbdbfc2fb	-0.093633614
6	0xbceca4ac	-0.028887115
7	0xb943541d	-0.00018627984
8	0xbd28e86d	-0.041237283
9	0xbd707346	-0.058703683
10	0xbd02b161	-0.031907443
11	0xbe74c39e	-0.23902747
12	0xbe0ab461	-0.13545372
13	0x3d8f74ae	0.07004677
14	0x3e84addd	0.25913897
15	0x3d40d284	0.047075763
16	0xac06fa5a	-1.9181518e-12
17	0xac8881bd	-3.8797563e-12
18	0xac831c26	-3.726369e-12
19	0xab0110ba	-4.585322e-13
20	0xac483357	-2.8450209e-12
21	0xacb4d209	-5.1392263e-12
22	0xac001814	-1.820326e-12
23	0xa9942fdd	-6.580823e-14
24	0xac89ffc7	-3.922171e-12
25	0xacbf8f85	-5.4444804e-12
26	0x2ba2340d	1.1525239e-12
27	0x2c2a36cb	2.418887e-12
28	0xabd52071	-1.5143565e-12
29	0xac3dab94	-2.695376e-12
30	0x2cb1583a	5.0404377e-12
31	0xaaac9b51	-3.066111e-13
32	0xaca83b7b	-4.781451e-12
33	0x2ba07c98	1.1403265e-12
34	0xab6b091f	-8.350143e-13
35	0x2b366f24	6.481363e-13
36	0xaa77d8ac	-2.201318e-13
37	0xac03e179	-1.8741382e-12
38	0x2bcf1e2e	1.4716611e-12
39	0x2b4cb3c3	7.272483e-13
40	0xaa062d82	-1.191738e-13
41	0x2c6be94d	3.3525017e-12
42	0xaaf652ec	-4.3755917e-13
43	0x2c90a13f	4.110628e-12
44	0xab9ca3b2	-1.1129901e-12
45	0x2c16a13a	2.140578e-12
46	0xaba86ca4	-1.1967272e-12
47	0xab0035aa	-4.554921e-13
48	0xbd8a6f6e	-0.06759535
49	0xbc3823e1	-0.011239023
50	0xbe055865	-0.13022001
51	0x3a948419	0.0011330872
52	0xba006f2b	-0.0004899378
53	0xbd960cc4	-0.073266536
54	0x3ec8c107	0.39209768
55	0xbd8c507d	-0.068512894
56	0xbcf2e676	-0.029650908
57	0x3d7b09cb	0.061288636
58	0xbdae190c	-0.08500871
59	0xbea1dbd9	-0.31613043
60	0xbe2bbb52	-0.16770676
61	0xbec877d0	-0.3915391
62	0xbdfd6064	-0.12371901
63	0xbe645fa0	-0.22302103
64	0xbe8333be	-0.25625414
65	0xbe2db78b	-0.16964547
66	0xbe174676	-0.14772972
67	0x3ec13df9	0.37742594
68	0x3e1d6fc1	0.15374662
69	0xbe1093c2	-0.14118865
70	0x3e9231dc	0.28553665
71	0x3e776374	0.24159032
72	0xbe4b1a10	-0.19834161
73	0xbdf41471	-0.119179614
74	0xbe1afa9f	-0.15134667
75	0xbe4b6e76	-0.19866356
76	0xbd816f30	-0.063200355
77	0x3ce94e80	0.028479815
78	0xbed3da1e	-0.41377348
79	0x3dde524c	0.10855541
80	0xaead1ee0	-7.872614e-11
81	0xae9eee0e	-7.227295e-11
82	0xad313c53	-1.007468e-11
83	0xadddbde2	-2.5209116e-11
84	0xad241c26	-9.328571e-12
85	0xae8dbb49	-6.445206e-11
86	0xab13973b	-5.2434766e-13
87	0x2dc48075	2.2339667e-11
88	0xad542cbd	-1.2060739e-11
89	0xae781bba	-5.6413298e-11
90	0xacb7e4de	-5.226582e-12
91	0x2e8dd100	6.4490635e-11
92	0xad93a06e	-1.678321e-11
93	0xae270ace	-3.7981e-11
94	0xadb8d1a9	-2.1011486e-11
95	0x2b83da8f	9.368772e-13
96	0xbe3a3d3d	-0.18187423
97	0xbda74439	-0.08167309
98	0x3e07bf11	0.1325648
99	0x3eb71793	0.35760173
100	0x3d74a120	0.059723973
101	0xbe110e07	-0.14165507
102	0xbe4bc7da	-0.19900456
103	0xbeb3bee6	-0.3510658
104	0x3ea13219	0.31483534
105	0xbf0cb444	-0.54962564
106	0xbd8ddc16	-0.06926744
107	0x3e9fd821	0.3121958
108	0xbefc19c9	-0.49238423
109	0x3e7d9fc7	0.24767981
110	0xbc8caa85	-0.017171154
111	0x3ebeade4	0.37242043
112	0x3dae08e3	0.08497789
113	0x3d8c2b11	0.06844152
114	0x3d702c58	0.05863604
115	0xbd6f779f	-0.05846369
116	0x3e750497	0.23927532
117	0x3ea1731a	0.31533128
118	0x3ca74254	0.02041737
119	0xbdc68d78	-0.09694952
120	0xbdc98baa	-0.09841092
121	0x3d49bf68	0.049254805
122	0xbdf061cf	-0.117374055
123	0xbd9df2f8	-0.07712358
124	0xbe264881	-0.16238596
125	0x3e40fcaf	0.18846391
126	0x3e79a2e8	0.2437855
127	0x3da87260	0.0822494
128	0x2a90924d	2.5681055e-13
129	0xaa93291a	-2.6140965e-13
130	0x2ba60e21	1.1798931e-12
131	0x2a39529c	1.6459962e-13
132	0xab2fae11	-6.2414055e-13
133	0x2ad6a3d3	3.8127712e-13
134	0x2ac7eee7	3.5515273e-13
135	0xaba4ed93	-1.1718841e-12
136	0x2b76c91b	8.7675846e-13
137	0x288e82b2	1.5821847e-14
138	0xab2a0ca7	-6.041369e-13
139	0xaaee19e5	-4.229526e-13
140	0x2b9f1337	1.1302963e-12
141	0xab4ff46f	-7.3880393e-13
142	0x2bc9c355	1.4336125e-12
143	0x295c8cd0	4.897195e-14
144	0xbdb560c4	-0.08856347
145	0xbe84e8aa	-0.2595876
146	0x3e15655b	0.14589445
147	0xbe4b7f85	-0.19872864
148	0xbdcd6008	-0.10028082
149	0xbedb37cf	-0.42816016
150	0x3d297320	0.041369557
151	0xbe06fbe3	-0.13182025
152	0xbd909945	-0.07060484
153	0xbe16c2a8	-0.14722693
154	0xbe6d249c	-0.23158497
155	0x3e771f1b	0.2413296
156	0x3d10501f	0.03523266
157	0xbe9a2fc2	-0.3011456
158	0xbc636fb5	-0.0138816135
159	0x3caf76e3	0.021418994
160	0x3df4d07f	0.1195383
161	0x3e4f111b	0.20221369
162	0xbe5726a4	-0.21010834
163	0x3da649fb	0.081195794
164	0xbe17437e	-0.1477184
165	0xbdd22761	-0.10261417
166	0x3e73d453	0.23811464
167	0x3e244a34	0.16043931
168	0x3e2fddbc	0.17174429
169	0x3dc41eb1	0.095761664
170	0x3e08582c	0.13314885
171	0xbe0dffab	-0.13867061
172	0x3ec2c467	0.38040468
173	0xbe21ecb3	-0.1581295
174	0xbe38f529	-0.18062271
175	0xbd0da541	-0.034581427
176	0xb19480d8	-4.3220147e-09
177	0x3089d762	1.0029277e-09
178	0xb2098068	-8.003646e-09
179	0xb200732d	-7.4767685e-09
180	0xb271a560	-1.4065648e-08
181	0xb25fd0d8	-1.3027794e-08
182	0xb2231ed3	-9.494857e-09
183	0xb178309b	-3.6116379e-09
184	0xb2284cbe	-9.796336e-09
185	0xb28c5520	-1.6336855e-08
186	0xb1e17e57	-6.562725e-09
187	0xb1445b62	-2.85737e-09
188	0xb27ec0f5	-1.4828619e-08
189	0xb25e6f8d	-1.2947464e-08
190	0xb22ed8d6	-1.0177436e-08
191	0xb1b94952	-5.392544e-09
192	0x3e0dcf61	0.1384864
193	0xbe4e6129	-0.20154251
194	0xbe0159e2	-0.12631944
195	0x3d03d90b	0.03218941
196	0xbed01830	-0.40643454
197	0x3c8a20b1	0.016861292
198	0x3e3da8db	0.18521444
199	0x3d56f850	0.052482903
200	0xbed57775	-0.416927
201	0xbd7fb01d	-0.062423814
202	0x3e388fa2	0.18023542
203	0x3cdcb3c7	0.026941193
204	0x3e413200	0.1886673
205	0x3dd0922d	0.10184131
206	0x3d684730	0.056708515
207	0x3e07de7e	0.13268468
208	0xac88777d	-3.8786183e-12
209	0xaccd9ed7	-5.844085e-12
210	0xacbffd06	-5.4566377e-12
211	0xacc07a0d	-5.4705186e-12
212	0xac62a122	-3.2205978e-12
213	0xabdcdaa3	-1.5692624e-12
214	0xacb47e4f	-5.1299308e-12
215	0xac96c767	-4.2853945e-12
216	0xad06db65	-7.6657335e-12
217	0xac85ef88	-3.8066807e-12
218	0xac548d60	-3.020549e-12
219	0xaccb1c35	-5.7727386e-12
220	0xad19d9e8	-8.745428e-12
221	0xad0bf336	-7.955239e-12
222	0xad23a665	-9.302424e-12
223	0xad11f900	-8.297585e-12
224	0xab156108	-5.307009e-13
225	0xab0c5121	-4.985058e-13
226	0xab10c94f	-5.143845e-13
227	0xaad94052	-3.8591575e-13
228	0xa8f9c540	-2.7730097e-14
229	0xaaf58b51	-4.3617413e-13
230	0xab3dacd0	-6.7386114e-13
231	0x2a3fceb0	1.7035917e-13
232	0x2b290d0b	6.005896e-13
233	0xaa122fc4	-1.2983977e-13
234	0x2a8bb07e	2.4813826e-13
235	0x2a646520	2.0285553e-13
236	0xab49a999	-7.164491e-13
237	0x2b4f2dfb	7.3604984e-13
238	0xaafdd955	-4.5092632e-13
239	0x293561ae	4.0274797e-14
240	0x3da4d5d6	0.080485985
241	0xbe2e7ac1	-0.17039014
242	0xbeb806c4	-0.35942662
243	0x3dc00b61	0.0937717
244	0xbf039a1f	-0.51407045
245	0xbda60215	-0.08105866
246	0xbec8ca0b	-0.39216647
247	0xbdd7f2ee	-0.10544382
248	0x3d3ba892	0.045815058
249	0xbec52998	-0.38508296
250	0xbd852c67	-0.0650261
251	0xbd3ad870	-0.045616567
252	0xbe788581	-0.24269678
253	0xbd942613	-0.072338246
254	0x3e6d1075	0.23150809
255	0x3e099b5b	0.1343817

fc1.bias f4 [64]
0	0x3d11fc7e	0.035641186
1	0xbc9701a5	-0.018433401
2	0xaf59adb5	-1.9797748e-10
3	0x3e1a2eb3	0.15056877
4	0xb4c6576c	-3.6943982e-07
5	0xbe066ee1	-0.13128234
6	0xad4c54cd	-1.1614887e-11
7	0x3e3ad96c	0.18247002
8	0xbe32b8aa	-0.17453256
9	0xbda8c562	-0.08240773
10	0x3e179ed6	0.14806685
11	0xb03a3331	-6.7739153e-10
12	0xbe61625b	-0.22010176
13	0xbdc13855	-0.094345726
14	0xbef3326e	-0.47499412
15	0xbce57576	-0.028010111
16	0xb2f9f93e	-2.9100757e-08
17	0xbe7762fc	-0.24158853
18	0xbe15178c	-0.14559764
19	0x3caaf25a	0.020867515
20	0xbe2cc255	-0.16871007
21	0x3e238928	0.1597029
22	0xbd5552bf	-0.052080866
23	0xbe4fa1b7	-0.20276533
24	0x3df29654	0.11845079
25	0xbe6395f3	-0.2222517
26	0x3b7397e9	0.0037169403
27	0x3d5993fe	0.053119652
28	0x3d74cff6	0.05976864
29	0xbe0a57bd	-0.13510032
30	0xb8273f07	-3.98746e-05
31	0xac03539f	-1.8662639e-12
32	0xbda2bcac	-0.079461426
33	0xbce9f0e3	-0.028557247
34	0xab084f28	-4.842676e-13
35	0xad013fe2	-7.346986e-12
36	0xbe22a73a	-0.15884104
37	0x3def763a	0.11692472
38	0xbef3c13b	-0.4760836
39	0xbd58a3a5	-0.05289044
40	0x3e1ef0ed	0.15521593
41	0xbea0dccb	-0.31418452
42	0xb34b1c03	-4.7290097e-08
43	0x3ea22c1e	0.31674284
44	0xbdc107bf	-0.094253056
45	0xaba73c4a	-1.1882797e-12
46	0xb1a409ce	-4.774143e-09
47	0x3d986ced	0.07442651
48	0xb4fbb03e	-4.6880626e-07
49	0xaea24285	-7.378723e-11
50	0xbde4061c	-0.11133978
51	0x3d5c004a	0.053711213
52	0xbde79b4c	-0.113089174
53	0xbe512746	-0.20425138
54	0x3e2e600d	0.17028828
55	0xaf7793ef	-2.2517076e-10
56	0xbe814b8d	-0.25252953
57	0x3e367bfc	0.17820734
58	0x3e674d9c	0.225882
59	0x3e14fff9	0.14550771
60	0xb3b0b8c1	-8.229245e-08
61	0xbe3deef4	-0.18548185
62	0xbe1c358b	-0.152548
63	0x3e09154e	0.13387033

fc2.weight f4 [128, 64]
0	0x3cf5e237	0.030015094
1	0xbd383f40	-0.044982195
2	0x2e9ab0ad	7.034493e-11
3	0xbdf99c3f	-0.12188005
4	0xb38a08ca	-6.4277245e-08
5	0xbe848cdf	-0.25888726
6	0x2b0aa2a8	4.925318e-13
7	0xbca6294e	-0.020283367
8	0xbde05638	-0.10953945
9	0xbdbe8932	-0.09303512
10	0x3e288850	0.16458249
11	0x2c32ac4c	2.5390965e-12
12	0xbdcb719f	-0.09933781
13	0xbe146d6c	-0.14494866
14	0xbe00d1a7	-0.12579976
15	0xbe06b64b	-0.13155477
16	0xae3fb520	-4.3589243e-11
17	0x3c4cf242	0.012508931
18	0xbe2ef228	-0.17084563
19	0xbd70d1d2	-0.05879385
20	0x3e7cbe39	0.24681939
21	0x3d387468	0.04503289
22	0xbc964fb5	-0.018348554
23	0xbdb91959	-0.09038038
24	0xbe288419	-0.16456641
25	0x3daf8042	0.08569385
26	0x3ea26aa9	0.31722
27	0x3d1b4c80	0.037914753
28	0x3c9f117d	0.019417519
29	0x3e129b4f	0.14317058
30	0xb2dc7509	-2.5664592e-08
31	0xab5c4dbe	-7.826759e-13
32	0xbcd64cd9	-0.02615969
33	0xbe2cf483	-0.16890149
34	0x2c4472ec	2.791707e-12
35	0xac07e700	-1.9312885e-12
36	0x3e1e45be	0.15456292
37	0xbd97133c	-0.073767155
38	0xbded8d1c	-0.1159918
39	0xbc1ad9c5	-0.009451334
40	0x3d91fc51	0.07128204
41	0xbf241174	-0.6408913
42	0xaf89a377	-2.5036304e-10
43	0xbe9677d0	-0.29388285
44	0x3c8446b1	0.01614699
45	0x2777e21c	3.440071e-15
46	0x2c7cae89	3.590824e-12
47	0x3e487ebc	0.19579595
48	0xb33b46be	-4.360367e-08
49	0x2c6c43de	3.357529e-12
50	0x3e08a58d	0.13344403
51	0xbe36c40a	-0.1784822
52	0xbe3aa6d1	-0.18227698
53	0xbe52221d	-0.20520826
54	0xbd1dede6	-0.038556956
55	0xaba65afa	-1.182026e-12
56	0xbdc5caf9	-0.096578546
57	0xbecd8d1c	-0.4014672
58	0xbe98ce5b	-0.29844937
59	0x3d4ad489	0.049519096
60	0xaf3ac21d	-1.6985564e-10
61	0xbea4c9ea	-0.32185298
62	0xbd8be9d7	-0.06831711
63	0xbbe0a4b1	-0.0068555702
64	0xacbac5bc	-5.308391e-12
65	0xac5a8e6d	-3.1058725e-12
66	0x2c2493b9	2.3387804e-12
67	0x2b050b4a	4.726676e-13
68	0x2c84eca0	3.7779363e-12
69	0xac0f822f	-2.0393789e-12
70	0x2b67a980	8.2302914e-13
71	0xad9d4692	-1.7880173e-11
72	0x2c0a70b3	1.967354e-12
73	0xad97ee72	-1.7272603e-11
74	0xb002d773	-4.7599896e-10
75	0x2c2c4643	2.4481673e-12
76	0xad9e039c	-1.7964123e-11
77	0xadcba050	-2.3149621e-11
78	0xac6e6c46	-3.3881938e-12
79	0xada5488c	-1.8790546e-11
80	0x278845a5	3.782309e-15
81	0xade572c4	-2.6085252e-11
82	0x2c2f186f	2.488256e-12
83	0xadcbdf8b	-2.3177701e-11
84	0xad22ac51	-9.246896e-12
85	0xad09bf49	-7.830022e-12
86	0xad8f32bb	-1.6279747e-11
87	0xad9a1348	-1.7516336e-11
88	0xad42a972	-1.1065248e-11
89	0xac288fbf	-2.395403e-12
90	0xaae54357	-4.0725298e-13
91	0xad3d4ab0	-1.075999e-11
92	0x2b8739b8	9.608347e-13
93	0x2c01d9a0	1.8452809e-12
94	0x2b5fcf5d	7.951329e-13
95	0xab9f9d4c	-1.1341288e-12
96	0x2c2f46c1	2.4908272e-12
97	0xad51f54d	-1.1934742e-11
98	0x2bcb4c93	1.4445271e-12
99	0x2bec5282	1.6791709e-12
100	0xabfb22da	-1.7844296e-12
101	0x2cdf9d26	6.355488e-12
102	0xac932e78	-4.1831504e-12
103	0xaba86f76	-1.1968055e-12
104	0xac7c39bf	-3.584341e-12
105	0x2bffb406	1.8168806e-12
106	0x2b6560c4	8.149143e-13
107	0xacf634fe	-6.997624e-12
108	0x2c5d0914	3.1411028e-12
109	0x2b9669f7	1.0687552e-12
110	0x2ab89dbe	3.2794421e-13
111	0xad53fc9b	-1.2050051e-11
112	0xac3ea09b	-2.7089778e-12
113	0x2b48c4bd	7.1327303e-13
114	0xad97ffdb	-1.7280335e-11
115	0xacbf94cb	-5.445066e-12
116	0xaf061c2f	-1.2197242e-10
117	0xae8b5dba	-6.3376374e-11
118	0xab4de6f8	-7.3151164e-13
119	0xaa746465	-2.1706385e-13
120	0xafb9fb0e	-3.382969e-10
121	0xac8e90ba	-4.0519506e-12
122	0xac217a24	-2.2947278e-12
123	0x2b5e80d4	7.904903e-13
124	0xac92de11	-4.174224e-12
125	0xad8ab022	-1.5767002e-11
126	0xadfa3ece	-2.84496e-11
127	0x2cb6fd8f	5.2009018e-12
128	0xbeb4b200	-0.35292053
129	0x3d7b1469	0.06129876
130	0xac717410	-3.4312587e-12
131	0xbf17e369	-0.59331375
132	0xb40042cd	-1.1945231e-07
133	0x3d9d4eba	0.076810315
134	0x2c60aea0	3.192925e-12
135	0xbe90e981	-0.2830315
136	0xbe74a30b	-0.23890321
137	0x3f2b9385	0.6702197
138	0xbe38bc79	-0.18040647
139	0x2c240f36	2.3314245e-12
140	0x3e7ee25f	0.24891041
141	0x3f177775	0.5916665
142	0x3db20d84	0.08693984
143	0x3e1bdfc6	0.15222082
144	0x2c0fc678	2.0431695e-12
145	0x3d75b2b4	0.059984878
146	0xbebc72f8	-0.36806464
147	0xbeb0e505	-0.34549728
148	0xbe9284a0	-0.2861681
149	0x3e596975	0.21231635
150	0xbcc9ce00	-0.024634361
151	0xbf4094a9	-0.7522684
152	0xbf0d4efe	-0.5519866
153	0x3e18b5b6	0.14913067
154	0xbd8d3c17	-0.06896227
155	0xbee8b5e7	-0.4545128
156	0xbe416955	-0.18887837
157	0xbeab2065	-0.33423153
158	0xb1b05a3a	-5.1325317e-09
159	0xacaec238	-4.96694e-12
160	0xbe614891	-0.22000338
161	0x3e58b277	0.21161829
162	0xac29be25	-2.4121896e-12
163	0xab26c146	-5.924327e-13
164	0x3ce21bd3	0.027601158
165	0xbecf68fe	-0.4050979
166	0x3df2c186	0.11853318
167	0x3e20dc14	0.15708953
168	0x3f08d276	0.5344614
169	0xbdc83065	-0.097748555
170	0xafa23c7b	-2.9510602e-10
171	0xbf138c58	-0.5763602
172	0xbdae70bb	-0.085175954
173	0xac552e48	-3.0294812e-12
174	0xadc3342e	-2.2192106e-11
175	0x3e68d05b	0.22735731
176	0xacb6bfed	-5.194059e-12
177	0x2c6765a4	3.2883496e-12
178	0xbe2885fe	-0.16457364
179	0xbeba2d32	-0.36362606
180	0x3ec1cef0	0.37853193
181	0x3e320ce9	0.17387737
182	0x3de6db4d	0.11272297
183	0xab047b37	-4.7066816e-13
184	0x3eaf13ee	0.34194893
185	0x3ec4cd80	0.38438034
186	0xbda6537d	-0.08121393
187	0xbf3b1ba3	-0.73089045
188	0xaf7f77f1	-2.3234727e-10
189	0x3e2ae472	0.16688707
190	0x3dfb7e98	0.12280005
191	0xbecf27f4	-0.4046017
192	0xbe1a0238	-0.15039909
193	0xbe4d692d	-0.20059653
194	0x2e314d4e	4.03138e-11
195	0xbd889ae1	-0.06670166
196	0xb1966dde	-4.378065e-09
197	0xbe5cb777	-0.21554361
198	0x2c841b2e	3.754683e-12
199	0xbe3d6c1d	-0.18498273
200	0xbe7b6547	-0.24550353
201	0x3ddcad5c	0.10775253
202	0x3e15cdb2	0.14629248
203	0x2b4d3f5e	7.291857e-13
204	0x3ea5c81a	0.32379228
205	0x3df17c76	0.11791317
206	0xbd19110b	-0.03736977
207	0x3e41117a	0.18854323
208	0xae408a29	-4.3778457e-11
209	0xbe4ec710	-0.20193124
210	0xbc42d2c2	-0.011891069
211	0xbe5f201b	-0.21789591
212	0xbe6273d6	-0.221145
213	0xbec825e4	-0.39091408
214	0x3d21f3c5	0.039539117
215	0xbd9b7d7a	-0.07592292
216	0xbe2ebe21	-0.17064716
217	0x3e9add9e	0.30247205
218	0x3e7a6a17	0.24454533
219	0xbdfe788d	-0.12425337
220	0xbe0926be	-0.13393685
221	0xbc90a167	-0.017655088
222	0xb807c0e3	-3.2366148e-05
223	0x2b42a1a5	6.914697e-13
224	0xbe8378d3	-0.2567812
225	0xbd2ff3c0	-0.042957067
226	0x2c16d8ca	2.1436624e-12
227	0xac68b3d0	-3.3069e-12
228	0xbe281fb3	-0.16418342
229	0x3d51fc7c	0.05126618
230	0xbde9fe2f	-0.11425435
231	0xbd0b26e8	-0.03397265
232	0xbdf22b79	-0.11824698
233	0xbd31a378	-0.043368787
234	0xb009a3ca	-5.007307e-10
235	0xbe3fef21	-0.18743564
236	0xbebe84ee	-0.37210792
237	0xabd4d1a1	-1.512169e-12
238	0xab0c05e5	-4.974617e-13
239	0xbe2cb672	-0.16866472
240	0x329e411d	1.8423231e-08
241	0x2c2fa986	2.49631e-12
242	0xbe51637c	-0.20448107
243	0xbd8a1569	-0.06742365
244	0xbd7fb8d9	-0.062432144
245	0xbe39eacd	-0.18155976
246	0x3d4a465c	0.049383506
247	0x2c623c93	3.2150157e-12
248	0x3f0b953c	0.5452459
249	0xbe9698bd	-0.29413405
250	0xbd84b3db	-0.06479617
251	0xbe77b5d5	-0.24190457
252	0xb14c45e9	-2.9725646e-09
253	0xbde11c82	-0.109917656
254	0x3d396a9b	0.045267683
255	0xbe2617e1	-0.16220047

fc2.bias f4 [128]
0	0xbddfba13	-0.10924163
1	0xadf77034	-2.8130477e-11
2	0xbeef8407	-0.46780416
3	0x3c8f2cf0	0.017477483
4	0xad2e0064	-9.890842e-12
5	0xbcaed8d8	-0.021343634
6	0x3cf3d94f	0.029766707
7	0xb440bacb	-1.7949348e-07
8	0xbf1eeeb3	-0.62082976
9	0x3e43b54a	0.19112125
10	0x3e4f4a0b	0.20243089
11	0x3d405360	0.046954513
12	0xbe46f901	-0.19430925
13	0x3ece6809	0.40313748
14	0x3e02904e	0.1275036
15	0x3c5fefbe	0.013667999
16	0xbe41471c	-0.18874782
17	0x3eccf89e	0.4003343
18	0x3eb32d51	0.3499551
19	0x3edc2fc3	0.4300519
20	0x3e910621	0.28324988
21	0xb6a42092	-4.8913726e-06
22	0x3e644653	0.22292452
23	0x3c893ceb	0.01675268
24	0xbdb3a083	-0.087708496
25	0x3ee095cf	0.43864295
26	0xb44d942a	-1.9146015e-07
27	0xbd8425e1	-0.06452537
28	0x3e799545	0.24373348
29	0xbe514680	-0.2043705
30	0xbbfe632e	-0.007763288
31	0xad566177	-1.2186133e-11
32	0xbe453942	-0.19260123
33	0xb43a6b76	-1.7361694e-07
34	0x3ebbdaa8	0.3669026
35	0x3e553f18	0.2082485
36	0xbdc9a24c	-0.09845409
37	0x3e6cb043	0.23114114
38	0xaf87c4b7	-2.469613e-10
39	0x3ebf8fa1	0.37414268
40	0xb1158e8e	-2.1763387e-09
41	0x3eb39b68	0.35079503
42	0xb33086bf	-4.1100744e-08
43	0x3d05734c	0.03258066
44	0x3eae5720	0.34050846
45	0x3e993f82	0.29931265
46	0x3e940cdf	0.2891607
47	0xb49475f3	-2.7652968e-07
48	0xadcc278c	-2.3209677e-11
49	0xb2ff06d6	-2.9689016e-08
50	0xbe08425e	-0.13306567
51	0x3e4f5759	0.20248164
52	0x3e7320b2	0.23742941
53	0xbf1c48ad	-0.61048394
54	0xaed04ef7	-9.472772e-11
55	0x3f155da5	0.58346015
56	0xbe046e7f	-0.12932776
57	0x3def865c	0.11695549
58	0x3e065f2e	0.13122246
59	0x3f0eb6a4	0.5574744
60	0x3e659852	0.22421387
61	0x3e6df4a8	0.2323786
62	0x3da130e0	0.0787065
63	0x3de1abb4	0.11019078
64	0x3c9734d8	0.018457815
65	0xbddb442d	-0.10706363
66	0xb4c7b3ad	-3.719737e-07
67	0xb5e5b6ad	-1.7114995e-06
68	0xbca73f14	-0.02041582
69	0x3d2ea4ed	0.042637754
70	0xbe5e8053	-0.2172864
71	0xbe1f27ff	-0.15542601
72	0xb42a8d64	-1.5883921e-07
73	0xb3c9135a	-9.363312e-08
74	0xb22d513d	-1.0088397e-08
75	0x3e986ec7	0.29772016
76	0xb343e4cd	-4.561007e-08
77	0xbef0b2c6	-0.47011393
78	0xbe82d7cc	-0.25555265
79	0xbe9bdea7	-0.30443308
80	0xb491692f	-2.7084886e-07
81	0xb82a5c2a	-4.0616993e-05
82	0xb54b576b	-7.5750603e-07
83	0x3e86c41d	0.26321498
84	0xbd7c1150	-0.061539948
85	0xbc44d85d	-0.012014476
86	0xbe0a074c	-0.13479346
87	0xb3e86932	-1.0822477e-07
88	0xb6063cfe	-2.0003058e-06
89	0x3e3021a6	0.17200336
90	0xbd1169d2	-0.03550131
91	0xb40be907	-1.3030159e-07
92	0xb3c2e1db	-9.074912e-08
93	0x3e6fb1d9	0.23407687
94	0xb6086dff	-2.0329605e-06
95	0x3ebc1e00	0.36741638
96	0xad6c3af3	-1.3428136e-11
97	0xbd5b074e	-0.053473763
98	0xbe8b0d6a	-0.27158672
99	0xae88965d	-6.211274e-11
100	0xbe1d5955	-0.15366109
101	0x3e238932	0.15970305
102	0x3da2b21c	0.07944128
103	0x3cac7805	0.021053324
104	0xb9190d8c	-0.00014596264
105	0xbcf9e0e7	-0.03050275
106	0xbe418730	-0.18899226
107	0xbe0abf1b	-0.13549463
108	0x3e99cfd3	0.3004137
109	0x3e398543	0.18117242
110	0xb492cd7e	-2.7344134e-07
111	0xb43319d8	-1.6680076e-07
112	0xbe606cd7	-0.21916519
113	0xb40d6e71	-1.3171827e-07
114	0xbd0ec5e3	-0.03485669
115	0x3e911720	0.28337955
116	0xadc3664e	-2.2214366e-11
117	0xb7eb0311	-2.8015611e-05
118	0xb43688d2	-1.6999846e-07
119	0xbe72eced	-0.23723193
120	0xb3f217f2	-1.1273359e-07
121	0xbe2c18ef	-0.16806386
122	0xbee826ca	-0.45342094
123	0x3d6528bb	0.055947047
124	0x3d781bfe	0.06057357
125	0xbe1b8ba8	-0.15189993
126	0xbe71c2aa	-0.23609415
127	0xbddd01ec	-0.10791382

fc3.weight f4 [4, 128]
0	0xbe1ca97f	-0.15299033
1	0xad4cb288	-1.1635699e-11
2	0xbc695805	-0.014242177
3	0xbc8a78a0	-0.016903222
4	0xad3e4f0a	-1.08178e-11
5	0xbf0ad6fa	-0.5423428
6	0xbd36354d	-0.044484425
7	0xb423d8fe	-1.5259499e-07
8	0x3e04f275	0.12983115
9	0x3b56e0c3	0.0032787777
10	0x3e674ddd	0.22588296
11	0x3e46769c	0.19381183
12	0x3e827219	0.25477675
13	0xbfc4c9fb	-1.537414
14	0x3ad3943a	0.0016142197
15	0x3e24bc32	0.16087416
16	0x3d1e698a	0.03867487
17	0xbc90b63b	-0.01766502
18	0x3e4e351d	0.20137449
19	0xbe151d59	-0.14561976
20	0xbed6cccb	-0.4195312
21	0xb41ba1e6	-1.4494398e-07
22	0xbcc71d55	-0.024305979
23	0x3e0f7ef9	0.1401328
24	0xbe64195a	-0.22275296
25	0x3e5d42b6	0.2160748
26	0xb2911cd2	-1.6893328e-08
27	0x3df111ab	0.11770948
28	0xbe8b071c	-0.27153862
29	0x3e7e93f2	0.24861124
30	0x3dca4ffb	0.09878536
31	0xab1333c3	-5.2296725e-13
32	0xbd0d8324	-0.034548894
33	0x33d56088	9.936144e-08
34	0xbf03b87f	-0.51453394
35	0x3d0848ad	0.033272434
36	0xbe71ecbf	-0.23625468
37	0x3ea4ad1b	0.3216332
38	0x2b4f7acb	7.371158e-13
39	0xbde8e128	-0.1137107
40	0x2eafe1e1	7.998203e-11
41	0xbd3e9110	-0.04652506
42	0x32193153	8.916987e-09
43	0x3e8447fe	0.25836176
44	0xbd29daf8	-0.04146859
45	0x3ddce85c	0.107865065
46	0x3e7f82b6	0.24952206
47	0xb2cd5cb0	-2.390729e-08
48	0x2c8866a0	3.876746e-12
49	0x3336176e	4.2396486e-08
50	0x3e768a08	0.24076092
51	0xbd6cc557	-0.057805385
52	0x3e338a46	0.17533216
53	0xbe4d26a2	-0.20034268
54	0x2d77950a	1.4073418e-11
55	0x3e4f431e	0.20240447
56	0xbf1194ca	-0.5686766
57	0x3e5c566e	0.21517345
58	0xbe4d9ecd	-0.20080109
59	0x3eb5318e	0.3538937
60	0xbeb2493e	-0.34821504
61	0x3cf42771	0.029803963
62	0x3d03e3a4	0.032199517
63	0xbd3dd3c4	-0.046344534
64	0x3e7b2d27	0.24528943
65	0xbdee5daa	-0.11638959
66	0x33b16444	8.260443e-08
67	0x344e9bb2	1.9241887e-07
68	0x3dc2ace9	0.09505636
69	0xbe09e154	-0.13464862
70	0xbd5455a7	-0.051839497
71	0xbea10165	-0.31446376
72	0xb094dfea	-1.0832057e-09
73	0x32113d1d	8.454006e-09
74	0x2ef07cc2	1.0936098e-10
75	0xbef1c2f3	-0.47219047
76	0x31a9a8ad	4.9377236e-09
77	0xbe33ad70	-0.1754663
78	0xbd1f9a9c	-0.038965806
79	0xbdff2d97	-0.124598674
80	0xb36f4821	-5.5712125e-08
81	0x38a08ae3	7.655264e-05
82	0x324d5cc4	1.1953663e-08
83	0x3d7a27ff	0.0610733
84	0xbde992e1	-0.11404968
85	0x3e789579	0.2427577
86	0xbefcecc8	-0.493994
87	0xb342b847	-4.5336744e-08
88	0x34c7f123	3.7242089e-07
89	0xbe7c045f	-0.24611042
90	0x3c3c858b	0.0115064485
91	0xb351e61d	-4.887089e-08
92	0xb1869bc5	-3.9176222e-09
93	0xbf337883	-0.7010576
94	0x34a2fa13	3.0356804e-07
95	0x3e1a1353	0.15046434
96	0x2bd6f1d7	1.5272739e-12
97	0x3eb1e517	0.34745094
98	0xbe531eb0	-0.20617175
99	0xad03dc5f	-7.49542e-12
100	0x3e19bf1d	0.1501431
101	0x3e8b6a03	0.27229318
102	0x3e722b7b	0.23649399
103	0x3df5beab	0.11999258
104	0xb8ac7357	-8.223083e-05
105	0x3e605e3f	0.21910952
106	0x3fd373d2	1.651972
107	0x3e55c12b	0.20874469
108	0x3e87983f	0.26483342
109	0x3df65284	0.12027457
110	0x331640de	3.4983593e-08
111	0xb2957ab5	-1.7401684e-08
112	0x3d8c5ffb	0.06854244
113	0xb266ff4d	-1.3445811e-08
114	0xbe895bd6	-0.26827878
115	0x3d347a28	0.04406181
116	0x2c79f7a5	3.5522499e-12
117	0xb5571533	-8.012459e-07
118	0x324096bb	1.1210143e-08
119	0x3e5a673c	0.21328443
120	0xb217bf75	-8.832889e-09
121	0xbd3648f1	-0.044503156
122	0xbdec08cd	-0.11525116
123	0xbe100d5b	-0.14067595
124	0xbe71d098	-0.23614728
125	0xbe231f8d	-0.15930004
126	0x3e41908a	0.18902794
127	0xbdc3e19a	-0.095645145
128	0x3abf502c	0.0014596037
129	0x2b8d017c	1.0019065e-12
130	0x3be1d67f	0.006892025
131	0xbed3ddb0	-0.41380072
132	0x2d2d1d8b	9.840471e-12
133	0xbbb5fe57	-0.0055540013
134	0x3ea722e5	0.3264381
135	0xb480a1dd	-2.395963e-07
136	0x3ebcd118	0.36878276
137	0x3d067dcd	0.032834817
138	0x3e4dce50	0.20098233
139	0xbde0b4d7	-0.109719925
140	0x3dd50015	0.10400406
141	0xbbd25c56	-0.0064196987
142	0xbd0329cf	-0.032022294
143	0xbcafe969	-0.021473603
144	0xbe0788fd	-0.1323585
145	0xbfad7007	-1.3549813
146	0x3ea5ccdd	0.3238286
147	0xbe1b7b01	-0.15183641
148	0x3cae32df	0.021264492
149	0xb45559f1	-1.9869891e-07
150	0x3e77916e	0.24176571
151	0x3e423628	0.18965971
152	0xbe93adcf	-0.28843543
153	0xbe7f0c89	-0.24907126
154	0x3153c2af	3.0815206e-09
155	0x3da068e3	0.078325056
156	0xbe9bc79d	-0.3042573
157	0x3cc76e03	0.02434445
158	0x3e72c2aa	0.23707071
159	0xac0b9223	-1.983421e-12
160	0x3bbc0b01	0.0057386165
161	0xb3de67e0	-1.0356575e-07
162	0x3e41f612	0.18941525
163	0xbf5df4ef	-0.86701864
164	0x3df4ffbe	0.119628415
165	0x3d3b9f71	0.045806352
166	0xac85ca67	-3.8025585e-12
167	0xbebda40e	-0.37039226
168	0xabdb6dd5	-1.559137e-12
169	0xbca0477d	-0.019565338
170	0xb209f2f2	-8.029689e-09
171	0xbdee576c	-0.11637768
172	0xbe3de264	-0.18543392
173	0x3e7903b7	0.24317823
174	0x3d895a00	0.06706619
175	0x33166ab1	3.5021632e-08
176	0xad0651e8	-7.635205e-12
177	0xb07aa10c	-9.117833e-10
178	0xbe1ecfd0	-0.15508962
179	0xbe4fc142	-0.20288566
180	0x3cb3e585	0.02196003
181	0xbdce62b5	-0.100774206
182	0xad7a3d71	-1.42244974e-11
183	0x3e4c1f78	0.1993388
184	0x3b12fa2f	0.0022426953
185	0x3e151524	0.14558846
186	0x3eb98d7d	0.3624076
187	0x3ec451d0	0.38343668
188	0xbebb4e5c	-0.3658322
189	0xbd5995ba	-0.053121306
190	0xbdba4fa8	-0.090972245
191	0xbec6997f	-0.38788983
192	0x3d7de88e	0.06198936
193	0xbe40fcce	-0.18846437
194	0xb43f595c	-1.782077e-07
195	0xb42e7d44	-1.6250584e-07
196	0x3d7ecb90	0.06220585
197	0xbe120286	-0.14258775
198	0xbead76e2	-0.33879763
199	0xbeeeb1d5	-0.4662005
200	0xb320cb75	-3.7437946e-08
201	0x329c1785	1.8171486e-08
202	0xad9a6b50	-1.755543e-11
203	0xbe0d770c	-0.13814944
204	0x32cc3341	2.3772033e-08
205	0xbe5de06d	-0.21667643
206	0x3ff4f04f	1.9135836
207	0xbe1e3387	-0.15449344
208	0x3439734c	1.7271412e-07
209	0x37cb3077	2.4222054e-05
210	0x34889a64	2.5444308e-07
211	0xbe9a6d70	-0.3016162
212	0xbe919d0e	-0.28440136
213	0xbd4d923b	-0.050188284
214	0x3de8bfac	0.113646835
215	0x32aba700	1.9982963e-08
216	0x35049829	4.9395254e-07
217	0x3e482a4d	0.19547386
218	0x3e64093d	0.22269149
219	0x32158f1b	8.70548e-09
220	0x3049c68a	7.3405515e-10
221	0x3dc4034b	0.095709406
222	0xb44ab881	-1.8879838e-07
223	0x3e131e86	0.14367113
224	0x2d095991	7.807436e-12
225	0xbd38750e	-0.045033507
226	0xbe9aebda	-0.30258065
227	0x2c66442f	3.2722815e-12
228	0x3e010a02	0.12601474
229	0x3edd1fb9	0.43188265
230	0x3e5a03c0	0.21290493
231	0x3ecc929b	0.399556
232	0xb705a5a5	-7.965985e-06
233	0x3e7877ac	0.24264401
234	0xbd571a4b	-0.05251531
235	0xbe7ea28f	-0.24866699
236	0xbed3489e	-0.4126634
237	0xbd01d30f	-0.03169542
238	0xb405cc83	-1.2460991e-07
239	0xb164cdce	-3.3295353e-09
240	0x3dab1c92	0.08355059
241	0x302d1a84	6.2974714e-10
242	0x3cf48b4e	0.029851582
243	0xbbad12ee	-0.0052817976
244	0x2db7ba24	2.0887354e-11
245	0xb78a0e6e	-1.6457601e-05
246	0x333f0e43	4.4483624e-08
247	0x3cf3e079	0.029770123
248	0x33314a8e	4.127883e-08
249	0x3d5b49cc	0.053537175
250	0xbe158a8b	-0.14603631
251	0xbbb17348	-0.005415354
252	0xbd46ba63	-0.048517596
253	0x3d1c95c5	0.03822877
254	0x3e341fde	0.17590281
255	0x3d248243	0.04016329

fc3.bias f4 [4]
0	0x3eb2868b	0.34868273
1	0x3eb76676	0.3582036
2	0x3ea59d39	0.32346514
3	0x3e9abe89	0.30223492
